Rank/Compare1/DeepFM/model/deepfm_model.pth (torch, 594169 bytes, 35 tensors)

embed_layers.embed_0.weight f4 [79, 8]
-0.31162128 -0.24867512 0.7813573 -1.488078 -0.093990184 1.0921004 1.3177322 -0.78647846
-1.4565367 1.7340071 1.833229 0.07632444 2.282024 -0.025866486 -0.39920032 -0.833786
0.06390632 -0.15632954 -0.29774448 -2.9938083 1.1438763 0.7453453 0.7260572 0.05622675
0.44956702 -0.4450987 -1.9676206 0.28793406 -2.1023405 0.86243695 -0.45496562 -0.494276
0.8110336 -0.47237313 -0.8936743 0.620399 1.9061898 -0.7910194 -0.2864717 -2.0668397
0.3662542 -2.236472 0.4060501 -0.056357484 -0.82594407 1.4309984 0.5978501 1.0262634
-1.5900675 0.32752022 -1.7774465 -0.7346055 1.1364176 -0.37483397 0.2604463 -0.6913213
0.2619087 -0.30802864 -0.25132447 -0.30760393 0.085545994 0.7455854 1.4591243 -0.6067709
-0.6476307 -0.4145541 0.88130987 -0.0777373 0.99999326 -1.0812511 -0.50504667 0.849836
0.3159102 -1.4522177 0.60081404 0.31449062 2.5894196 -1.8067867 -0.2900484 -0.39246988
-0.55428356 0.88480324 -0.12561917 -0.36624217 -0.093343824 0.93316877 0.51440984 -0.80122375
-0.3940797 -0.15953538 -1.5782264 -0.14757416 0.31871638 -1.0508522 -0.04590105 0.038828555
0.47622502 -0.6862555 1.5168706 1.1171073 -0.5456955 0.070281826 1.8106762 0.77964216
0.6612967 -0.8716991 -1.1345041 -0.39780104 -0.4763737 0.047138244 -0.2463585 -0.52415675
2.7793465 -0.45980066 -0.13074484 -0.41685882 0.78001183 -0.26722223 -0.489974 -0.736294
0.37606007 -1.3736309 -1.9578894 0.27868408 0.71604943 1.7300742 -1.3546177 -0.23937227
-0.37344655 -0.76947385 2.5163693 0.58771807 -2.424325 -0.06729393 -0.936046 -0.60655266
-0.70763457 -0.35801524 -0.18796739 0.04529909 0.89021987 -0.81527764 0.5780891 1.8414037
0.5345418 -1.2170502 -0.51953065 -0.19065401 -0.45598394 -0.62500834 1.9161848 0.53938085
1.7040663 0.22927223 -1.1848893 0.3374863 0.4342107 0.094946235 -0.5045729 0.8832856
0.7890099 -1.2312679 0.48664054 -0.25535092 1.3740984 0.3627241 -1.8253647 -0.99493265
-0.14527158 0.6486461 0.23318341 -0.7431558 0.9975985 -0.15163252 -0.063742064 -0.27429318
1.1896935 0.62546915 -0.6654152 -1.1802362 0.62447643 -0.054447476 -0.25188935 -0.40086484
0.6718865 -0.944691 1.1092573 -0.041061077 -1.1862552 -1.1233064 1.4220712 -1.5120926
-1.1000775 -1.145035 0.82545424 0.63111097 0.03742263 1.6679138 -2.5700073 1.8792937
0.79489255 -0.20662902 -0.045177072 0.24812284 -0.60903174 2.4599748 -1.3060068 1.8857617
-0.029037196 -0.5759124 0.9187699 -1.3519758 0.94206756 0.08239374 0.30875635 0.044536807
0.6369807 0.046133183 -0.3819393 0.044094175 -0.28452694 0.7065156 -1.623781 -2.6972673
-0.7803933 -0.6860227 -0.42537174 -1.5897999 0.582491 0.8102958 -1.2135165 -0.30563843
1.0645571 1.0012938 -0.10705541 -0.38703504 -0.5352259 -1.5461744 -1.111738 -1.9256892
0.7192256 0.7047157 1.1005672 -0.38436952 1.0570228 -0.14873083 0.060419764 2.2596323
-0.031527523 0.79428166 -1.1784033 0.597939 0.67417455 0.6978476 -1.4616325 -0.050837062
00000000: d38c 9fbe b1a4 7ebe 0807 483f 5779 bebf
00000010: ed7d c0bd f2c9 8b3f 73ab a83f a756 49bf
00000020: cb6f babf f2f3 dd3f 3fa7 ea3f fd4f 9c3d
00000030: ae0c 1240 f4e5 d3bc fc63 ccbe 0073 55bf
00000040: 51e1 823d da14 20be f771 98be 8e9a 3fc0
00000050: 8a6a 923f f3ce 3e3f e2de 393f 054e 663d
00000060: a62d e63e fae3 e3be feda fbbf 186c 933e
00000070: bf8c 06c0 abc8 5c3f 41f1 e8be be11 fdbe
00000080: e69f 4f3f e4da f1be d7c7 64bf 78d2 1e3f
00000090: 07fe f33f 3f80 4abf 6bac 92be 1a47 04c0
000000a0: ac85 bb3e 5b22 0fc0 cce5 cf3e 1bd7 66bd
000000b0: 1271 53bf f52a b73f b40c 193f 995c 833f
000000c0: 5587 cbbf bbb0 a73e 5e83 e3bf 1b0f 3cbf
000000d0: 2276 913f 3dea bfbe 3859 853e 6ffa 30bf
000000e0: e618 863e eeb5 9dbe 9aad 80be 437e 9dbe
000000f0: bd32 af3d afde 3e3f 96c4 ba3f 5655 1bbf
00000100: 20cb 25bf 6f40 d4be 869d 613f bc34 9fbd
00000110: 8fff 7f3f 7066 8abf bd4a 01bf da8e 593f
00000120: fbbe a13e 45e2 b9bf f3ce 193f ea04 a13e
00000130: 0db9 2540 c944 e7bf 3981 94be d0f1 c8be
00000140: 87e5 0dbf 7782 623f 50a2 00be 1884 bbbe
00000150: 0c2b bfbd 26e4 6e3f 5db0 033f 001d 4dbf
00000160: d0c4 c9be 3e5d 23be 5303 cabf ae1d 17be
00000170: cb2e a33e 5382 86bf bd02 3cbd b10a 1f3d
00000180: c4d3 f33e 71ae 2fbf d128 c23f 5ffd 8e3f
00000190: b3b2 0bbf ebef 8f3d 3dc4 e73f a196 473f
000001a0: be4a 293f ac27 5fbf 6e37 91bf 94ac cbbe
000001b0: 41e7 f3be 0814 413d 6745 7cbe 232f 06bf
000001c0: d0e0 3140 fe6a ebbe fae1 05be 856e d5be
000001d0: dbae 473f 5ad1 88be dfdd fabe c37d 3cbf
000001e0: f28a c03e 23d3 afbf 1f9c fabf aeaf 8e3e
000001f0: 044f 373f 1273 dd3f 1d64 adbf 011e 75be
00000200: 6334 bfbe 3dfc 44bf 320c 2140 b174 163f
00000210: 2428 1bc0 66d1 89bd b6a0 6fbf 0947 1bbf
00000220: 8a27 35bf c64d b7be 867a 40be 8a8b 393d
00000230: 73e5 633f 09b6 50bf a6fd 133f 1eb3 eb3f
00000240: bbd7 083f 4dc8 9bbf f6ff 04bf ce3a 43be
00000250: ba76 e9be 8c00 20bf 8b45 f53f dd14 0a3f
00000260: d81e da3f 57c6 6a3e 74aa 97bf 01cb ac3e
00000270: dd50 de3e 2c73 c23d b12b 01bf 011f 623f
00000280: 8efc 493f 309a 9dbf f328 f93e 5bbd 82be
00000290: 75e2 af3f f9b6 b93e 8da5 e9bf e8b3 7ebf
000002a0: 13c2 14be ac0d 263f a2c7 6e3e 753f 3ebf
000002b0: 9e62 7f3f 8e45 1bbe 338b 82bd 2870 8cbe
000002c0: e047 983f bf1e 203f a758 2abf fb11 97bf
000002d0: b0dd 1f3f 5104 5fbd a4f7 80be 283e cdbe
000002e0: c100 2c3f 45d7 71bf 25fc 8d3f a92f 28bd
000002f0: 36d7 97bf 81c8 8fbf 6e06 b63f 408c c1bf
00000300: 57cf 8cbf 8290 92bf f850 533f 7d90 213f
00000310: 7948 193d 337e d53f 007b 24c0 b28c f03f
00000320: 147e 4b3f 8f96 53be 980b 39bd ea13 7e3e
00000330: 81e9 1bbf 3a70 1d40 3b2b a7bf a460 f13f
00000340: 6adf edbc ff6e 13bf 8134 6b3f 8b0d adbf
00000350: 572b 713f 0dbe a83d 5015 9e3e 3a6c 363d
00000360: 2b11 233f 26f6 3c3d 8c8d c3be 189c 343d
00000370: 84ad 91be 35de 343f 0ed8 cfbf 07a0 2cc0
00000380: dbc7 47bf 2f9f 2fbf 53ca d9be 907e cbbf
00000390: 211e 153f 8c6f 4f3f 8254 9bbf a47c 9cbe
000003a0: 6843 883f 652a 803f de3f dbbd 7529 c6be
000003b0: 9104 09bf 0be9 c5bf 6e4d 8ebf fc7c f6bf
000003c0: 2b1f 383f 4068 343f 63df 8c3f 15cc c4be
000003d0: 864c 873f e54c 18be b77a 773d d19d 1040
000003e0: 0123 01bd 0b56 4b3f ebd5 96bf 8812 193f
000003f0: b496 2c3f 24a6 323f c616 bbbf 863a 50bd

embed_layers.embed_1.weight f4 [252, 8]
0.46421415 0.8391647 1.5083375 0.9256412 1.5805297 1.6491686 0.7379147 -1.0434871
0.19443145 0.24444352 -0.46018818 0.6922181 -0.33953777 0.8765098 1.5060761 -1.2588838
0.64861184 0.052248087 -1.7379167 0.7676901 0.32094276 0.1321441 2.4936383 0.32050264
-0.07655431 -1.8625398 0.06213762 0.5597389 -0.14996605 -1.4792054 0.2799176 0.8272455
0.8356069 0.6537393 -0.872156 0.57040894 1.0847533 0.80453634 -0.23810896 -0.6065706
-1.010732 -0.5458218 0.5827856 -0.31515837 0.41546333 -1.6288229 0.6117243 0.64249706
0.47678044 0.58745027 1.0826864 -0.45475775 -0.15819296 -0.56699914 0.6360504 -1.0821627
1.7900362 0.75854504 2.543426 -0.95551074 1.834563 0.32373205 -0.9236333 0.071572386
0.95192343 0.37273234 0.047873486 0.41384917 1.0743872 1.199935 3.1381402 0.6801189
1.9450866 0.48943207 -0.22990271 1.3845354 1.0444889 1.1812971 0.43499216 0.7749995
-1.4603889 1.0063218 0.36105174 -0.6486892 -0.7397731 1.3542919 0.764785 -1.4604179
-0.4841472 -0.5000865 -0.56988376 -1.6493425 -0.88672364 0.9871947 0.55812967 -2.3488135
-0.16146356 -0.673276 -0.30592355 -1.0070024 0.32834658 0.48781553 -1.4754552 0.04704224
-0.5507967 0.8472468 0.8425042 -0.38132226 -1.455069 0.3188652 -0.83140844 0.8445347
-0.63119286 0.035003886 -0.7366122 0.7612744 -1.3945171 0.71675897 -1.1946785 0.84889066
-1.990865 0.16359568 1.1860279 2.1303227 -0.41108808 -0.35524026 -0.46672058 -0.49010366
-1.2389656 1.1446981 -1.0576105 0.69886315 -0.061464973 -1.6466839 -0.74643654 0.94004583
-2.9239085 -1.372165 1.0821874 1.8037032 0.77260846 2.4715598 -0.15824363 -0.15601264
-0.9445333 0.525244 0.31537488 1.1825104 1.0974231 -0.33167693 -0.8132864 -1.0860729
1.0261356 -0.9845435 -0.09059353 0.9172635 1.8368918 0.7862692 -1.1176091 -0.32009488
0.42843205 0.7002515 1.5532291 -0.30377677 0.7639574 -0.115956046 0.11603426 0.6415922
0.9197237 0.4464362 -2.1985285 0.2939684 0.85571617 -1.665987 0.17402655 -0.7527107
0.15959395 1.1913667 -0.3682679 -0.72714376 2.089253 -0.53278106 -0.56201893 0.1520332
1.7479175 -0.11475943 -0.5583771 0.2844993 1.1359535 0.19413935 0.80373085 -0.8711448
0.47024858 1.2204475 0.9582457 0.2665063 0.9767201 -0.87672913 -1.0114839 1.7959849
-1.5460958 1.5393168 -0.26303494 0.95262665 -0.7592278 1.8789886 0.40320116 1.3101792
0.38286877 1.8312602 0.016991118 0.8896414 -0.48429552 0.29649112 0.7424893 -1.2022363
-1.299765 -0.9251061 -0.17495818 -0.30704394 -1.1458933 -0.48202825 -0.7923491 -0.31954685
-1.2622265 0.04655075 -0.49510688 0.5058042 -0.47596785 -1.3469529 1.7058221 -0.9659356
0.54214776 -1.6999263 -1.2308662 -1.2262971 -0.39343774 -0.4509851 0.850023 1.5545639
0.48279646 0.60487735 -0.5236536 0.46519542 -0.5105532 -1.1375085 -1.3058912 -1.1516836
-0.4501929 -0.22894196 0.86838526 0.4534648 1.0655042 -0.39375436 0.035603557 1.0956302
00000000: 7aad ed3e 7fd3 563f 3411 c13f d2f6 6c3f
00000010: cc4e ca3f f517 d33f fae7 3c3f fc90 85bf
00000020: 0a19 473e 674f 7a3e c99d ebbe 3535 313f
00000030: e5d7 adbe f262 603f 1ac7 c03f 1b23 a1bf
00000040: 6d0b 263f 1702 563d 0e74 debf 5787 443f
00000050: 9c52 a43e c850 073e c597 1f40 ec18 a43e
00000060: 82c8 9cbd b467 eebf 0484 7e3d 0c4b 0f3f
00000070: b390 19be 9a56 bdbf 5c51 8f3e 5cc6 533f
00000080: 55ea 553f 755b 273f 9e45 5fbf 5206 123f
00000090: 32d9 8a3f 18f6 4d3f d6d2 73be 3648 1bbf
000000a0: ab5f 81bf faba 0bbf 7031 153f 705c a1be
000000b0: 9cb7 d43e 457d d0bf f799 1c3f b07a 243f
000000c0: 911c f43e 2463 163f 7895 8a3f 02d6 e8be
000000d0: 56fd 21be db26 11bf 33d4 223f 4f84 8abf
000000e0: e81f e53f 0230 423f 7ec7 2240 5a9c 74bf
000000f0: f6d2 ea3f 35c0 a53e 3b73 6cbf 8b94 923d
00000100: 41b1 733f c6d6 be3e fd16 443d 0ae4 d33e
00000110: 8585 893f 7897 993f 4ad7 4840 461c 2e3f
00000120: 99f8 f83f d796 fa3e 9e6b 6bbe 7538 b13f
00000130: d0b1 853f be34 973f 4bb7 de3e 5e66 463f
00000140: 06ee babf 27cf 803f c6db b83e 7f10 26bf
00000150: c561 3dbf 7059 ad3f f3c8 433f f9ee babf
00000160: 24e2 f7be ab05 00bf e7e3 11bf a81d d3bf
00000170: 5200 63bf cbb8 7c3f 96e1 0e3f f652 16c0
00000180: b456 25be d15b 2cbf 03a2 9cbe 74e5 80bf
00000190: 0b1d a83e f5c2 f93e b7db bcbf 5daf 403d
000001a0: 0301 0dbf 2be5 583f 5bae 573f ac3c c3be
000001b0: b33f babf 4d42 a33e 2fd7 54bf 6d33 583f
000001c0: db95 21bf 3c60 0f3d 9e92 3cbf e1e2 423f
000001d0: 897f b2bf 847d 373f 3aeb 98bf e650 593f
000001e0: aad4 febf a085 273e c3cf 973f 3557 0840
000001f0: 237a d2be 0de2 b5be 00f6 eebe deee fabe
00000200: 6d96 9ebf 7885 923f c85f 87bf b2e8 323f
00000210: b2c2 7bbd 8ac6 d2bf 7716 3fbf d8a6 703f
00000220: 5121 3bc0 1aa3 afbf 1e85 8a3f bfdf e63f
00000230: abc9 453f 092e 1e40 9e0a 22be c7c1 1fbe
00000240: efcc 71bf 6476 063f d178 a13e 805c 973f
00000250: 5c78 8c3f 8fd1 a9be 8a33 50bf 7004 8bbf
00000260: 6958 833f 0b0b 7cbf 1a89 b9bd c8d1 6a3f
00000270: 451f eb3f f048 493f d10d 8fbf 7ae3 a3be
00000280: 725b db3e af43 333f 36d0 c63f a188 9bbe
00000290: b692 433f 5d7a edbd 5fa3 ed3d 633f 243f
000002a0: 0373 6b3f 4993 e43e b1b4 0cc0 0783 963e
000002b0: 3710 5b3f 103f d5bf 0434 323e a6b1 40bf
000002c0: 996c 233e b47e 983f 9c8d bcbe 1826 3abf
000002d0: 52b6 0540 5764 08bf 79e0 0fbf 97ae 1b3e
000002e0: c3bb df3f fe06 ebbd cdf1 0ebf e4a9 913e
000002f0: ed66 913f 77cc 463e 4ec1 4d3f 5803 5fbf
00000300: 6cc4 f03e a037 9c3f 974f 753f 8473 883e
00000310: 540a 7a3f 5271 60bf 4e78 81bf d5e2 e53f
00000320: 78e6 c5bf 5508 c53f 84ac 86be 57df 733f
00000330: c15c 42bf b382 f03f 6270 ce3e f4b3 a73f
00000340: 6007 c43e bc66 ea3f f530 8b3c 8abf 633f
00000350: 95f5 f7be afcd 973e c713 3e3f e1e2 99bf
00000360: b35e a6bf c1d3 6cbf 3d28 33be dd34 9dbe
00000370: a2ac 92bf 68cc f6be 64d7 4abf a59b a3be
00000380: a390 a1bf 00ac 3e3d a67e fdbe 627c 013f
00000390: 0fb2 f3be f468 acbf 6158 da3f 8e47 77bf
000003a0: 32ca 0a3f 2f97 d9bf 068d 9dbf 4ef7 9cbf
000003b0: ac70 c9be 85e7 e6be 1b9b 593f f3fb c63f
000003c0: 1931 f73e 3ed9 1a3f 2a0e 06bf 182e ee3e
000003d0: 9db3 02bf e199 91bf 7127 a7bf 5e6a 93bf
000003e0: af7f e6be c36f 6abe 7f4e 5e3f 8a2c e83e
000003f0: 7162 883f 2c9a c9be 09d5 113d 9c3d 8c3f

embed_layers.embed_2.weight f4 [1293, 8]
0.088838585 -0.24057192 -0.4680664 -0.46695656 0.7829951 0.9634716 -7.257712e-05 0.452496
0.18152054 0.82629544 -1.0612907 0.095935255 -0.43804714 0.43958545 -0.24122478 0.46769065
0.77940434 1.2103022 -1.0760765 0.502252 -0.2697105 1.1418828 -0.5434675 -0.24420078
0.22667792 -0.6698043 -0.3954377 -0.4229019 0.22180773 0.23847996 0.294831 0.10674718
1.2712586 -1.406986 0.74297583 0.8861344 0.97836256 -0.50239974 1.0246816 -0.30394965
1.5058217 1.0996964 1.1267025 -1.1607184 -1.5630349 -0.51138324 -1.0639799 0.33331355
-0.5902477 1.4627745 0.33992055 1.3122002 -1.109811 -0.59866124 0.38117146 0.13566665
0.70988977 -0.060447834 1.540816 -1.4789234 0.8015371 -0.42611265 0.35286114 -0.26952308
-0.78130084 -1.0743241 -0.6288424 0.29435444 -0.20385091 0.10942103 -0.46000072 0.3284758
-0.30209056 -1.900957 0.32907525 0.0119126225 1.079808 1.0974696 -0.26362604 -0.72773254
-1.3419489 0.8064466 0.3205705 0.6257321 -0.7152191 -0.07598531 -0.7152047 -0.6030873
-0.75470895 -0.70034647 1.2754537 0.55259246 -0.107628755 -1.7652185 -0.09083035 -0.8522221
-0.5250354 -1.0481881 -3.1932945 -1.6006525 1.9646193 1.0026604 -0.9184947 -0.56521964
1.250222 0.73940873 1.5255578 -0.18094446 0.07907694 -0.118458755 -0.9083681 -1.3853192
-0.64542913 -0.4793896 -0.37292176 -1.2007135 1.1674165 -0.82571775 -0.10383988 -0.06138154
1.6710085 -0.6184695 0.919014 1.0087171 -0.98130673 -0.36289352 0.5252955 -1.6475273
0.08359082 -0.8718279 0.4599439 1.7422955 -0.7404775 -1.2280873 -0.2650412 1.2685714
-2.4602354 -0.29308328 -0.035407946 1.1953433 -0.7800676 -0.03942524 1.6720356 0.51322806
0.65301555 0.69780374 0.56704235 0.8667383 0.55448884 0.17914523 0.59786457 1.6832415
-0.2909977 1.1889611 -0.4846374 -0.8437403 -0.68931603 0.1374434 -0.73517 -0.46964002
-0.53927976 1.0356933 1.458602 -0.3068383 0.5359211 0.12822193 -0.43681622 1.1449465
1.4022065 0.73312443 0.15876429 1.1133041 0.5682692 0.24992742 0.9394429 1.3702213
0.6093447 0.16739713 0.9139321 -0.116488926 -0.96320194 -1.7315238 0.10001313 0.20410824
0.0895269 -1.4481822 0.05391932 -1.7558994 0.5078044 -0.27405065 0.2814898 0.4842797
0.32026365 -1.3886267 0.508378 -0.36948666 -0.452308 -1.5847446 -0.9047237 -0.11555052
-1.4335312 1.7464995 0.050330013 0.7409589 -0.36213523 1.8060559 -0.81025076 1.525459
-0.4541366 0.8796659 0.027417993 0.4960729 -0.027431203 -0.21353763 0.4826892 0.094745815
1.4333024 -0.07270232 -0.2654261 -0.54018253 -0.1226797 -0.7440987 1.6225462 1.0628701
-1.2780104 -0.86499107 0.5359473 -0.8209436 0.4041416 -1.2870138 -0.63436383 0.594202
0.11694148 0.84287924 -2.8830438 1.4116 -1.8699838 1.5158076 0.6347871 0.09524221
1.0112597 1.4591238 0.86993057 -0.368639 0.7660435 -0.6046228 0.5223882 0.50171137
1.6705976 -0.55441403 1.8839091 1.6285393 -0.7965624 0.645564 -0.0313392 0.608569
00000000: 01f1 b53d 7c58 76be 66a6 efbe ee14 efbe
00000010: 5e72 483f 13a6 763f 8b34 98b8 8ead e73e
00000020: 85e0 393e 1988 533f 60d8 87bf b479 c43d
00000030: b747 e0be 5811 e13e a103 77be 2675 ef3e
00000040: 0b87 473f 2feb 9a3f e0bc 89bf 9693 003f
00000050: 7f17 8abe 3729 923f b020 0bbf c50f 7abe
00000060: 421e 683e 4b78 2bbf cf76 cabe 9986 d8be
00000070: 9121 633e 1734 743e 17f4 963e 449e da3d
00000080: 9ab8 a23f 1e18 b4bf aa33 3e3f b4d9 623f
00000090: f875 7a3f 459d 00bf c428 833f 4a9f 9bbe
000000a0: c4be c03f dac2 8c3f ca37 903f 6c92 94bf
000000b0: 8711 c8bf 03ea 02bf 7e30 88bf 13a8 aa3e
000000c0: 791a 17bf 323c bb3f 110a ae3e 2df6 a73f
000000d0: 490e 8ebf dd41 19bf e828 c33e 33ec 0a3e
000000e0: 56bb 353f 2698 77bd 7539 c53f 5d4d bdbf
000000f0: 8931 4d3f 702b dabe 37aa b43e eefe 89be
00000100: 5503 48bf 7483 89bf d1fb 20bf a0b5 963e
00000110: 4bbe 50be 2218 e03d 3785 ebbe fb2d a83e
00000120: 9dab 9abe 8f52 f3bf 8d7c a83e 292d 433c
00000130: 2637 8a3f e279 8c3f fef9 86be ae4c 3abf
00000140: fbc4 abbf 4973 4e3f d121 a43e fb2f 203f
00000150: 9918 37bf 309e 9bbd a817 37bf ee63 1abf
00000160: 9b34 41bf e849 33bf 1142 a33f b376 0d3f
00000170: 776c dcbd aef2 e1bf 4305 babd 3a2b 5abf
00000180: b868 06bf 072b 86bf f05e 4cc0 2ee2 ccbf
00000190: a578 fb3f 2d57 803f 7822 6bbf 3cb2 10bf
000001a0: 4607 a03f e449 3d3f 7a45 c33f 8149 39be
000001b0: 17f3 a13d 819a f2bd d08a 68bf 2452 b1bf
000001c0: d83a 25bf 8e72 f5be 9aef bebe fbb0 99bf
000001d0: e76d 953f 3d62 53bf 01aa d4bd 366b 7bbd
000001e0: 9be3 d53f 0454 1ebf 8044 6b3f a41d 813f
000001f0: eb36 7bbf 2ecd b9be c479 063f 2de2 d2bf
00000200: aa31 ab3d 1d30 5fbf c47d eb3e 8a03 df3f
00000210: ef8f 3dbf f731 9dbf 7bb3 87be 8c60 a23f
00000220: 7f74 1dc0 030f 96be ec07 11bd 0201 993f
00000230: 83b2 47bf 5c7c 21bd 4305 d63f ea62 033f
00000240: 072c 273f 44a3 323f b029 113f 90e2 5d3f
00000250: fbf2 0d3f d971 373e a70d 193f 7574 d73f
00000260: a7fd 94be e12f 983f 6522 f8be 5dff 57bf
00000270: 0477 30bf f6bd 0c3e 1a34 3cbf a874 f0be
00000280: 3d0e 0abf 9991 843f 78b3 ba3f e919 9dbe
00000290: 2032 093f 9c4c 033e 60a6 dfbe 9b8d 923f
000002a0: 817b b33f 0bae 3b3f 1b93 223e c080 8e3f
000002b0: 177a 113f f9ec 7f3e 547f 703f 6963 af3f
000002c0: 04fe 1b3f 276a 2b3e 74f7 693f bf91 eebd
000002d0: 6794 76bf 92a2 ddbf afd3 cc3d c001 513e
000002e0: e159 b73d 095e b9bf 81da 5c3d 50c1 e0bf
000002f0: 78ff 013f 5e50 8cbe 6e1f 903e 82f3 f73e
00000300: 99f9 a33e 85be b1bf 1025 023f 5b2d bdbe
00000310: ea94 e7be e9d8 cabf f99b 67bf c0a5 ecbd
00000320: f37d b7bf 4c8d df3f d826 4e3d 7caf 3d3f
00000330: ca69 b9be d72c e73f 986c 4fbf 3e42 c33f
00000340: 9884 e8be c931 613f b39b e03c 44fd fd3e
00000350: 67b7 e0bc 9ca9 5abe 0a23 f73e 180a c23d
00000360: 7476 b73f f4e4 94bd eee5 87be 6749 0abf
00000370: 7f3f fbbd 417d 3ebf 98af cf3f 210c 883f
00000380: d895 a3bf 0e70 5dbf d833 093f 5c29 52bf
00000390: a6eb ce3e debc a4bf ab65 22bf 9f1d 183f
000003a0: 047f ef3d efc6 573f ca83 38c0 4faf b43f
000003b0: a15b efbf fc05 c23f 6881 223f 590e c33d
000003c0: f570 813f 92c4 ba3f c5b3 5e3f 40be bcbe
000003d0: 6d1b 443f 8fc8 1abf 3cbb 053f 2870 003f
000003e0: 24d6 d53f 14ee 0dbf ef23 f13f fa73 d03f
000003f0: 83eb 4bbf af43 253f 885d 00bd 2ecb 1b3f

embed_layers.embed_3.weight f4 [1043, 8]
-1.7601857 -0.8151376 -2.0409327 -0.08033396 -0.4541118 0.2692935 -1.5448186 0.6268698
0.9971384 0.119160675 1.1521959 -0.026960682 -0.31201565 0.42394263 -2.1499627 0.8385239
0.8851864 -0.37803566 0.5070336 2.9245522 -1.0469397 0.252891 0.20478258 1.5274662
-1.4676602 -1.8957833 0.40877527 0.0133919045 0.07688397 -0.25663885 0.33731455 0.7637846
1.0184766 0.439987 0.1337062 -2.0279114 -0.28671 1.4125272 0.7502523 -1.649483
-0.8535093 -2.1642973 0.04376566 0.44460276 -0.2059396 -0.03515396 -0.8451658 0.58554626
0.9097087 -0.77703345 0.27385488 1.1046144 1.4481105 -1.300932 -1.387803 -1.4434203
0.08280456 -1.296922 -1.2488605 1.5201603 0.45047852 1.9370801 -0.20451818 0.61327606
-1.0919039 0.43328267 0.19786064 -0.76804316 0.18593079 -0.98524857 -0.75947034 1.5929104
-1.6275046 0.7106046 1.0925798 -1.1485939 0.003824541 2.294926 0.7424863 -0.40620175
-0.13106662 -0.12433728 1.3210903 2.103634 -0.17913856 0.3052016 -0.96604687 1.1265084
-0.16502593 -0.4953085 -1.1096318 -0.17026652 0.5321991 0.44417247 -0.808208 -0.2783568
-1.1674509 0.06492107 1.12671 0.5547573 -0.32301724 0.471559 -1.0251588 -0.534576
-1.9812261 -0.04474655 -0.4156683 -0.4152642 1.4110819 0.35938185 -0.40897772 -2.0935276
0.7267955 0.6246197 2.0766897 0.11565606 0.2833234 -0.3292421 -2.1108592 0.923277
-0.024298485 1.7555076 -0.12352034 0.43170917 -0.8378168 1.4756163 2.0817645 -1.127788
-1.1009554 0.41811952 0.74828887 1.1932381 -1.3517963 0.107894085 -1.3173419 -1.8393201
-0.29412872 0.18558381 0.6399303 -2.6970675 0.17582037 0.9985109 -0.8348031 0.06834122
0.37149695 -1.419227 0.22378628 -1.6846751 1.0983803 0.36192468 -0.27882776 1.4232148
-0.37918693 2.0702949 -1.212094 -0.4920185 -0.3387723 -0.8424527 0.84513503 0.76393294
-0.21487693 0.28505376 0.5221015 -0.102539204 0.13852146 0.01503593 -1.2258803 -0.29709485
2.2207243 -1.6325252 0.35370344 -0.061309915 -0.38429165 -1.859521 0.44873267 0.5620421
0.5417512 0.3159147 -1.141805 0.6898577 1.244035 -0.23098251 -0.6802522 0.8440211
1.6850936 0.3890577 1.2603918 0.16798438 -0.21663953 -0.20406172 -0.80175614 1.8159797
-0.2931224 -0.5516082 0.7704654 1.8505704 0.44008738 -0.27391267 1.0672996 -2.7466602
0.73516923 -0.7804861 1.0873687 1.4287726 -0.28613564 0.6423345 -1.0181905 -0.07417009
0.7920216 0.7757225 -2.57148 1.5198742 -0.16318402 -0.02419136 0.042021703 -0.58819634
-0.4926491 -0.07331047 0.34691468 0.21135387 -0.31470132 -0.6067866 -0.24950211 -0.86681765
-0.7593056 0.5189853 -0.5506481 0.72717947 -0.776849 1.636163 -2.587037 0.40394872
1.5127443 -0.010106189 0.7772602 -0.25132334 -0.9728909 1.0840447 -0.8157399 0.9178151
0.3827133 -2.3141391 -0.90626526 -0.046004094 0.5556733 1.0099303 1.0994409 -1.7688979
0.018584557 1.3681295 -0.5071907 0.010500538 -0.9081702 0.5533332 -1.686277 -1.0591207
00000000: c44d e1bf dcac 50bf a49e 02c0 2286 a4bd
00000010: 5881 e8be d6e0 893e 9ebc c5bf 8a7a 203f
00000020: 7644 7f3f 830a f43d 287b 933f a6dc dcbc
00000030: 84c0 9fbe 020f d93e fd98 09c0 81a9 563f
00000040: 939b 623f e48d c1be f4cc 013f dd2b 3b40
00000050: 1f02 86bf ee7a 813e 86b2 513e 0384 c33f
00000060: 4adc bbbf 07a9 f2bf fe4a d13e b869 5b3c
00000070: 5875 9d3d 2b66 83be 7eb4 ac3e 6387 433f
00000080: 715d 823f fa45 e13e 47ea 083e 4dc9 01c0
00000090: a7cb 92be b1cd b43f 8910 403f 4222 d3bf
000000a0: 967f 5abf d983 0ac0 9f43 333d f9a2 e33e
000000b0: d5e1 52be 99fd 0fbd c95c 58bf 5ce6 153f
000000c0: abe2 683f aaeb 46bf b536 8c3e 0164 8d3f
000000d0: af5b b93f f184 a6bf 87a3 b1bf ffc1 b8bf
000000e0: 7095 a93d 8a01 a6bf a9da 9fbf 9d94 c23f
000000f0: 1fa5 e63e 3ef2 f73f 376d 51be a9ff 1c3f
00000100: 82c3 8bbf 3ad7 dd3e fb9b 4a3e 7a9e 44bf
00000110: a464 3e3e 4039 7cbf a66c 42bf 7de4 cb3f
00000120: 1252 d0bf 2fea 353f a8d9 8b3f 2005 93bf
00000130: 27a5 7a3b 11e0 1240 9513 3e3f adf9 cfbe
00000140: 5436 06be 8ba4 febd 7d19 a93f f1a1 0640
00000150: 1970 37be 6243 9c3e d94e 77bf 6d31 903f
00000160: 8ffc 28be 1399 fdbe 6a08 8ebf 595a 2ebe
00000170: 333e 083f 936a e33e b8e6 4ebf c884 8ebe
00000180: 086f 95bf 57f5 843d 0938 903f 9304 0e3f
00000190: 8462 a5be 2e70 f13e 6738 83bf f9d9 08bf
000001a0: d198 fdbf 2948 37bd 7ad2 d4be 829d d4be
000001b0: 559e b43f e600 b83e 8765 d1be 5bfc 05c0
000001c0: 450f 3a3f 14e7 1f3f 7ce8 0440 16dd ec3d
000001d0: c40f 913e 6c92 a8be 5118 07c0 e25b 6c3f
000001e0: 9e0d c7bc 79b4 e03f 3bf8 fcbd fc08 dd3e
000001f0: 297b 56bf ffe0 bc3f a13b 0540 5b5b 90bf
00000200: 1bec 8cbf c313 d63e dc8f 3f3f 07bc 983f
00000210: a907 adbf 93f7 dc3d a99e a8bf d76e ebbf
00000220: 0a98 96be af09 3e3e 79d2 233f c19c 2cc0
00000230: 410a 343e 699e 7f3f a8b5 55bf 7bf6 8b3d
00000240: d934 be3e 3ba9 b5bf 3b28 653e 6fa3 d7bf
00000250: ba97 8c3f 314e b93e 83c2 8ebe e72b b63f
00000260: ca24 c2be b67f 0440 e525 9bbf d9e9 fbbe
00000270: 9073 adbe fbaa 57bf c55a 583f 1c91 433f
00000280: b308 5cbe 91f2 913e 72a8 053f 1300 d2bd
00000290: 92d8 0d3e 4359 763c a5e9 9cbf d11c 98be
000002a0: 5920 0e40 96f6 d0bf 9e18 b53e 1b20 7bbd
000002b0: e0c1 c4be c904 eebf 4ac0 e53e fee1 0f3f
000002c0: 35b0 0a3f 92bf a13e ab26 92bf 849a 303f
000002d0: 8a3c 9f3f ae86 6cbe 0225 2ebf c411 583f
000002e0: 26b1 d73f 9232 c73e 8554 a13f 1904 2c3e
000002f0: c1d6 5dbe 8ef5 50be e43f 4dbf 0672 e83f
00000300: 2414 96be 3236 0dbf 383d 453f 7edf ec3f
00000310: 2253 e13e 483e 8cbe 469d 883f 48c9 2fc0
00000320: 0d34 3c3f f0cd 47bf e62e 8b3f 05e2 b63f
00000330: 5f80 92be 0970 243f 1154 82bf 7de6 97bd
00000340: edc1 4a3f c095 463f 2193 24c0 3d8b c23f
00000350: b619 27be f62c c6bc f31e 2c3d 0994 16bf
00000360: 813c fcbe cd23 96bd cd9e b13e 266d 583e
00000370: 8820 a1be 5e56 1bbf 7b7d 7fbe c3e7 5dbf
00000380: da61 42bf 38dc 043f 46f7 0cbf 6f28 3a3f
00000390: 93df 46bf ca6d d13f 0492 25c0 5ed2 ce3e
000003a0: 9ba1 c13f 6e94 25bc 86fa 463f 74ad 80be
000003b0: 610f 79bf fac1 8a3f 55d4 50bf eef5 6a3f
000003c0: fff2 c33e db1a 14c0 0001 68bf ca6e 3cbd
000003d0: 9b40 0e3f 6545 813f 7bba 8c3f 3f6b e2bf
000003e0: a43e 983c de1e af3f 40d7 01bf 730a 2c3c
000003f0: d87d 68bf 3fa7 0d3f edd7 d7bf 4491 87bf

embed_layers.embed_4.weight f4 [30, 8]
1.7928811 0.76837176 1.2035146 -0.00974245 -1.087272 -0.09029892 -0.27770177 1.3486674
-0.8578194 1.21352 0.18631116 0.7350718 -1.834826 -0.05897917 1.898355 -0.65930295
-0.3360287 -1.0848777 -0.7241935 0.57591236 -0.21134798 0.84144866 -1.1174802 -1.5671352
-1.4283792 1.819402 -0.6120099 0.047602307 -1.6566492 -1.5765381 -0.7498279 -0.6718266
-0.7108454 -0.14119984 0.32453516 -1.6562985 0.6044481 -1.1692065 0.4346537 -0.93416715
-0.029095626 0.6937875 0.2832559 -0.6414646 -0.43744346 0.58023244 0.21045245 -0.57333165
-0.3000278 -0.20369065 0.9129128 -1.2145529 -0.74776036 0.7232777 0.9607449 2.2971516
-1.01782 0.42490104 -1.2838618 0.1058244 -0.24425742 1.7132809 -0.08877671 0.13763508
-0.7396882 1.4731108 0.30460027 -1.0686505 -0.53451455 0.8911049 0.48082012 -1.1568245
-1.8654584 -0.9119082 0.77788633 1.1987736 0.67672706 0.60674113 -0.2603053 0.0032048367
-1.128065 0.62255716 0.43856823 0.5455165 0.31878725 0.97017306 -0.6533516 0.53981215
-0.8345045 0.008583763 1.6313488 0.31103823 -1.1006879 -0.9470278 -0.4496708 -0.62884337
0.0055307546 1.4550911 1.1644995 0.6112302 0.9498819 -0.689765 0.6925339 -0.39161292
1.2144772 -1.5723275 -0.8622387 1.9480797 -0.6773189 0.5844127 0.05300325 2.4705358
0.5219097 1.384007 -2.3751223 1.3231831 -0.019551728 -0.30483058 0.35676077 -0.5379772
2.9402795 -1.2834066 -0.468707 0.29088488 -0.1271899 0.2125932 0.34071013 -1.3676305
-0.38456288 -0.80574596 -0.40955874 -1.1451138 0.8872121 -1.3002295 -0.47961923 0.99911344
-1.0018182 1.7182009 -0.37272394 1.437013 1.8745407 -2.2310262 -0.45073372 -1.4912816
-0.016609518 0.2945068 0.23892693 1.4609909 -1.3627458 -0.18332629 -0.04867273 -1.055218
-0.7470538 0.542525 -0.12733115 -1.2109348 1.7354734 -0.4412225 0.20127167 0.65267724
-0.051772077 -0.36282405 -1.0204887 0.18630189 -0.03328601 2.3984456 -0.9876745 0.20123431
-0.3650325 1.0918841 -0.54554635 0.34668916 1.1418658 0.5364271 -0.0458838 -1.9638772
1.6881441 -1.4940968 0.94770426 -0.9124031 0.64311945 -0.11776904 0.42118374 0.6613829
-2.1663332 -0.16120027 1.0590376 0.008459828 0.029230911 0.9372817 0.11733868 0.5806125
-1.1111825 -0.16872928 0.64196277 -0.5890027 -0.034267902 0.7156066 0.33785436 0.3377237
0.120365724 -0.047408048 -0.93733275 0.6816702 0.26431322 -0.78806174 0.24257933 0.81519115
1.6124533 -0.045691717 1.3832506 -0.38931945 -0.112294436 -0.7985656 1.8217964 0.81711537
1.0951669 -0.033343356 -1.151863 -0.045918766 -0.25535795 0.24368028 -2.1676526 1.4505836
-0.7380349 -0.69076407 -0.901474 -1.19891 0.4074439 0.23167537 0.39874336 -1.291919
-0.97772 1.0095633 1.0885262 1.6045518 -0.20174146 0.94376457 -0.3576068 -2.0987196
00000000: 217d e53f 03b4 443f c40c 9a3f cc9e 1fbc
00000010: bb2b 8bbf a4ee b8bd ed2e 8ebe 22a1 ac3f
00000020: 0d9a 5bbf a054 9b3f 5ac8 3e3e aa2d 3c3f
00000030: 94db eabf 2494 71bd 4cfd f23f 14c8 28bf
00000040: f40b acbe 46dd 8abf bf64 39bf fe6e 133f
00000050: 9b6b 58be 2e69 573f 9709 8fbf e397 c8bf
00000060: 21d5 b6bf 2ae2 e83f aeac 1cbf a3fa 423d
00000070: 150d d4bf 00cc c9bf b9f4 3fbf d4fc 2bbf
00000080: f7f9 35bf b196 10be 7929 a63e 9701 d4bf
00000090: 1cbd 1a3f 8fa8 95bf ee8a de3e 9425 6fbf
000000a0: f359 eebc 0f9c 313f eb06 913e 0637 24bf
000000b0: 97f8 dfbe 1d8a 143f d980 573e ddc5 12bf
000000c0: 3e9d 99be 4894 50be a7b4 693f 7876 9bbf
000000d0: 396d 3fbf ba28 393f 61f3 753f 8804 1340
000000e0: ed47 82bf a18c d93e 9555 a4bf 77ba d83d
000000f0: 9e1e 7abe ca4c db3f 90d0 b5bd 36f0 0c3e
00000100: 355c 3dbf e58e bc3f 91f4 9b3e 8ac9 88bf
00000110: f2d5 08bf 731f 643f 0e2e f63e d312 94bf
00000120: 57c7 eebf d172 69bf 8f23 473f 6a71 993f
00000130: fc3d 2d3f 6353 1b3f bc46 85be 3d08 523b
00000140: 6f64 90bf e85f 1f3f 048c e03e f8a6 0b3f
00000150: 1538 a33e 435d 783f 0d42 27bf 2131 0a3f
00000160: 16a2 55bf e9a2 0c3c 0ad0 d03f 6740 9f3e
00000170: 57e3 8cbf 6a70 72bf 403b e6be e1fb 20bf
00000180: 553b b53b 6d40 ba3f 520e 953f 9579 1c3f
00000190: 762b 733f 7094 30bf e749 313f 7d81 c8be
000001a0: fd73 9b3f 0742 c9bf adbb 5cbf ad5a f93f
000001b0: c564 2dbf 129c 153f f019 593d 421d 1e40
000001c0: e09b 053f 2427 b13f 0102 18c0 105e a93f
000001d0: f22a a0bc c112 9cbe 59a9 b63e e0b8 09bf
000001e0: 8a2d 3c40 ab46 a4bf 5dfa efbe ddee 943e
000001f0: 123e 02be 08b2 593e 8f71 ae3e 840e afbf
00000200: 6de5 c4be 5e45 4ebf afb1 d1be 1793 92bf
00000210: 5520 633f ec6d a6bf a790 f5be e6c5 7f3f
00000220: 943b 80bf 02ee db3f acd5 bebe 0bf0 b73f
00000230: f3f0 ef3f 22c9 0ec0 92c6 e6be 51e2 bebf
00000240: af10 88bc 98c9 963e 43a9 743e c001 bb3f
00000250: 746e aebf e3b9 3bbe 0e5d 47bd 6211 87bf
00000260: eb3e 3fbf ebe2 0a3f 1963 02be e9ff 9abf
00000270: fe23 de3f eae7 e1be 291a 4e3e db15 273f
00000280: f50e 54bd 13c4 b9be 609f 82bf ecc5 3e3e
00000290: e956 08bd 2280 1940 3cd8 7cbf 5e10 4e3e
000002a0: 8ae5 babe dcc2 8b3f eda8 0bbf 3e81 b13e
000002b0: a928 923f 4953 093f a7f0 3bbd 5460 fbbf
000002c0: 1b15 d83f 903e bfbf bf9c 723f 4093 69bf
000002d0: 7aa3 243f e530 f1bd 65a5 d73e 6450 293f
000002e0: 34a5 0ac0 af11 25be 8b8e 873f 179b 0a3c
000002f0: aa75 ef3c b2f1 6f3f 434f f03d 05a3 143f
00000300: 3a3b 8ebf 5ec7 2cbe ac57 243f e2c8 16bf
00000310: 805c 0cbd fe31 373f 3ffb ac3e 1fea ac3e
00000320: 4e82 f63d f12e 42bd 0af5 6fbf f081 2e3f
00000330: 1054 873e 6abe 49bf b766 783e 5eb0 503f
00000340: df64 ce3f 3d27 3bbd 5b0e b13f e154 c7be
00000350: a0fa e5bd cc6e 4cbf a030 e93f 792e 513f
00000360: 6e2e 8c3f 0b93 08bd 3f70 93bf 5115 3cbd
00000370: 47be 82be 5387 793e d2ba 0ac0 b9ac b93f
00000380: dbef 3cbf ead5 30bf 00c7 66bf e275 99bf
00000390: 7d9c d03e 4f3c 6d3e 1728 cc3e 9a5d a5bf
000003a0: dc4b 7abf 5f39 813f d454 8b3f f461 cd3f
000003b0: 5095 4ebe 8e9a 713f 3d18 b7be 6c51 06c0

embed_layers.embed_5.weight f4 [7, 8]
0.5149203 0.23840214 1.330785 -1.2915999 -0.19495608 -1.4698411 -0.7677735 1.8257376
0.88373685 0.2713558 0.45911446 -0.78892213 0.1756717 -2.2935112 1.702142 -2.5351677
0.6485533 -0.02955951 1.0298798 -1.6237991 -2.2394152 -0.85155344 0.88518095 -0.04194982
-0.90062815 -0.09256108 -0.23624104 0.6828537 1.2366855 0.31055963 -0.33857948 1.2535325
0.51104426 0.5903069 1.3819475 -0.44899473 -0.6696107 0.7790411 0.5911598 -0.19341914
0.32836044 1.7974424 1.3623335 1.0908331 -0.29621813 1.9343415 -1.2495176 0.7616913
1.7855018 -1.1387172 1.0173635 -2.6149693 -0.16342813 0.046586458 0.16897951 0.8198987
00000000: d1d1 033f b11f 743e 2a57 aa3f 2553 a5bf
00000010: 91a2 47be c123 bcbf ce8c 44bf c5b1 e93f
00000020: 943c 623f 26ef 8a3e 0d11 eb3e cdf6 49bf
00000030: 48e3 333e e3c8 12c0 cadf d93f 3040 22c0
00000040: 9707 263f c926 f2bc 1ad3 833f a6d8 cfbf
00000050: 9452 0fc0 68ff 59bf 389b 623f 93d3 2bbd
00000060: 918f 66bf aa90 bdbd 2ce9 71be 80cf 2e3f
00000070: b64b 9e3f ac01 9f3e 4a5a adbe c173 a03f
00000080: ccd3 023f 5a1e 173f a8e3 b03f a3e2 e5be
00000090: 9b6b 2bbf 3d6f 473f 4056 173f ab0f 46be
000000a0: dc1e a83e 9812 e63f f260 ae3f 6ba0 8b3f
000000b0: e7a9 97be 8198 f73f 31f0 9fbf 33fe 423f
000000c0: 538b e43f 7cc1 91bf f838 823f a85b 27c0
000000d0: b459 27be 71d1 3e3d f708 2d3e e2e4 513f

embed_layers.embed_6.weight f4 [1164, 8]
0.43247235 -0.485544 -0.13524337 1.1606275 0.74630195 2.6900966 1.6167988 -0.5683194
-1.320536 -0.5234967 -0.9581646 -0.8129082 0.5250998 0.59780383 0.4837627 0.8524294
0.0022919062 0.74147487 0.5699033 -0.049851995 0.3813236 -1.0630519 0.57455105 -3.0367165
0.43476817 -0.5059004 0.9136929 -1.3140656 -1.0797019 -0.018775439 -1.3816421 1.8665645
-0.44671917 0.38517892 -1.3225927 0.5196833 0.048022844 2.9063983 -0.5896905 -0.37536198
0.7361803 -0.6885291 -0.39617157 1.2710823 -1.0967656 0.73201627 1.129179 -1.6228797
-0.76963496 0.5752286 1.611487 -0.077458024 -1.0603162 1.681265 0.24397445 0.21869543
0.750727 0.36885548 -0.8650311 -0.14620787 0.09895369 0.22399111 -1.3523211 0.6568258
-0.18108994 0.4368055 0.22988653 -0.6987693 1.7536503 -1.354075 1.5892004 -0.078183696
-0.4628784 1.943811 -0.0150454715 1.1528931 -0.4330706 -0.023590239 -1.3740114 2.0761092
0.53940755 0.9481128 0.8427768 0.83390343 0.96694213 0.71859366 0.95966715 0.09529102
0.43401057 0.6987445 -0.5367472 -2.1484776 1.1690643 -0.26248556 -0.22571097 -0.6723667
0.35226822 0.03773982 -0.68415797 -0.45526245 -0.079974845 -0.72303325 -0.3055088 -0.14938802
-0.45306116 -0.92633325 -0.20744868 0.28427607 -0.23896085 0.35658318 1.1410416 1.5188023
1.1162928 0.75128955 0.43542933 0.5578869 0.27101743 0.15351732 -0.14540865 0.97276753
0.13905776 -0.24294442 1.3306134 -1.0631354 -0.09692708 1.5416931 -0.33566937 1.091515
0.87322164 1.5222267 0.08509094 0.37461704 -1.2252659 -0.6355046 2.0845985 -1.5983375
0.42021906 -1.515105 -1.3425971 0.3060883 -0.87571365 0.093819655 -0.75384456 0.12770203
-2.0663307 -0.26226643 -1.3847262 0.21095546 -0.81409425 0.34693494 -1.2129327 0.36355388
-1.1800439 0.41835523 -2.0379422 0.6766837 0.010378955 -0.5363934 0.3393181 0.50523955
-0.21962328 0.9821213 1.2524073 -0.5593296 1.3423076 -0.19823629 0.67518 0.86486787
-0.26086444 0.072187126 -1.505673 0.8149782 0.49975604 1.0422621 0.650108 0.1755277
1.9072925 1.6934441 -0.9991703 -0.006497104 0.5402047 -0.24055894 -0.2880799 -0.9336248
0.9227018 0.37248975 -0.12835701 0.17495635 1.4822804 -1.3717549 -1.5171481 0.76290786
-0.07477505 1.6821309 -0.3447594 0.28282586 1.6790023 -0.67949003 0.9037377 1.4924539
0.09944608 -1.1904052 0.7642014 0.24443923 -0.26619154 -0.5805601 0.03804782 -0.50358707
0.3975329 -0.975694 0.08583505 0.27923033 -0.31539 -1.1556078 -0.32797182 -0.42265862
0.7913926 -1.382002 -0.67680913 0.49431378 0.4890819 -0.48590693 0.5113462 -0.5411687
-0.10917243 0.30726835 0.9629362 1.9129949 0.13916582 0.59586406 0.9474211 -1.133697
-0.63429856 0.114503264 -1.0424746 -0.4517641 0.8133341 0.58145344 -0.2684494 -0.25427094
-2.136892 -1.0767486 -0.32750884 -0.73780274 -0.6268619 1.0338448 0.92382467 -1.8987634
0.32142463 -0.9697171 0.12204994 0.49742636 0.5992144 0.36702907 -0.8077773 0.5182087
00000000: 046d dd3e 3999 f8be 3d7d 0abe 718f 943f
00000010: a50d 3f3f 8b2a 2c40 43f3 ce3f 617d 11bf
00000020: 5307 a9bf e103 06bf 464a 75bf c01a 50bf
00000030: f16c 063f ac09 193f bfaf f73e d038 5a3f
00000040: ce33 163b 4cd1 3d3f 2fe5 113f 9b31 4cbd
00000050: d93c c33e 1612 88bf c715 133f 9059 42c0
00000060: ef99 de3e b082 01bf c7e7 693f 4d33 a8bf
00000070: ac33 8abf f3ce 99bc a6d9 b0bf 96eb ee3f
00000080: 60b8 e4be 2c36 c53e b84a a9bf f709 053f
00000090: 9ab3 443d 6e02 3a40 f5f5 16bf 722f c0be
000000a0: 5076 3c3f 7143 30bf 00d7 cabe d3b2 a23f
000000b0: d162 8cbf 6b65 3b3f f088 903f 86ba cfbf
000000c0: cc06 45bf 2e42 133f 3545 ce3f 50a2 9ebd
000000d0: 71b8 87bf b133 d73f 70d4 793e b2f1 5f3e
000000e0: a52f 403f a0da bc3e ae72 5dbf 84b7 15be
000000f0: 3ba8 ca3d ed5d 653e dc18 adbf bc25 283f
00000100: a46f 39be f8a4 df3e 6067 6b3e 8be2 32bf
00000110: 9d77 e03f 5452 adbf eb6a cb3f c61e a0bd
00000120: 66fe ecbe cdce f83f 4881 76bc 0092 933f
00000130: 6ebb ddbe 5140 c1bc 9bdf afbf f9de 0440
00000140: 9d16 0a3f 85b7 723f 38c0 573f b27a 553f
00000150: 8589 773f c1f5 373f bfac 753f f027 c33d
00000160: a236 de3e ebe0 323f 4468 09bf a880 09c0
00000170: e6a3 953f 8264 86be c720 67be 3920 2cbf
00000180: 805c b43e 1295 1a3d fa24 2fbf 2918 e9be
00000190: dac9 a3bd b518 39bf a66b 9cbe 2cf9 18be
000001a0: a2f7 e7be 2d24 6dbf 6d6d 54be a28c 913e
000001b0: 27b2 74be 1292 b63e a70d 923f 1d68 c23f
000001c0: afe2 8e3f 8354 403f 98f0 de3e add1 0e3f
000001d0: ccc2 8a3e a533 1d3e 01e6 14be 4b07 793f
000001e0: 2865 0e3e 6cc6 78be 8a51 aa3f d214 88bf
000001f0: b481 c6bd 3356 c53f dbdc abbe c3b6 8b3f
00000200: 748b 5f3f 53d8 c23f 2944 ae3d cecd bf3e
00000210: 83d5 9cbf 6eb0 22bf 106a 0540 5396 ccbf
00000220: f426 d73e f6ee c1bf 39da abbf 9bb7 9c3e
00000230: c52e 60bf 8524 c03d f5fb 40bf 52c4 023e
00000240: c33e 04c0 c947 86be b53e b1bf b504 583e
00000250: 7b68 50bf 75a1 b13e 6141 9bbf bc23 ba3e
00000260: ae0b 97bf a832 d63e a56d 02c0 253b 2d3f
00000270: 7e0c 2a3c 1451 09bf 1abb ad3e 6157 013f
00000280: ede4 60be 4d6c 7b3f e24e a03f 3a30 0fbf
00000290: bcd0 ab3f 74fe 4abe 99d8 2c3f fb67 5d3f
000002a0: 0690 85be d8d6 933d e5b9 c0bf 69a2 503f
000002b0: 06e0 ff3e d868 853f 7a6d 263f 89bd 333e
000002c0: 2922 f43f c7c2 d83f a0c9 7fbf a9e5 d4bb
000002d0: db4a 0a3f 1555 76be 357f 93be 0902 6fbf
000002e0: 2f36 6c3f fab6 be3e 0570 03be c227 333e
000002f0: 5dbb bd3f aa95 afbf e931 c2bf ee4d 433f
00000300: a923 99bd 1150 d73f 4e84 b0be 8dce 903e
00000310: 8ce9 d63f 0ff3 2dbf 5b5b 673f bb08 bf3f
00000320: 63aa cb3d 335f 98bf b4a2 433f 474e 7a3e
00000330: 424a 88be 969f 14bf 08d8 1b3d 15eb 00bf
00000340: 6f89 cb3e 15c7 79bf 49ca af3d 47f7 8e3e
00000350: cc7a a1be f5ea 93bf eceb a7be b666 d8be
00000360: b598 4a3f 71e5 b0bf 5d43 2dbf b216 fd3e
00000370: f168 fa3e cbc8 f8be 96e7 023f 088a 0abf
00000380: cc95 dfbd 4752 9d3e fd82 763f 04dd f43f
00000390: 7c81 0e3e 8c8a 183f 308a 723f fc1c 91bf
000003a0: 6461 22bf b080 ea3d cf6f 85bf a04d e7be
000003b0: aa36 503f 22da 143f 3372 89be cd2f 82be
000003c0: d7c2 08c0 e6d2 89bf 3daf a7be a4e0 3cbf
000003d0: 057a 20bf 0755 843f c67f 6c3f ae0a f3bf
000003e0: c591 a43e 613f 78bf 52f5 f93d abae fe3e
000003f0: 1d66 193f 3ceb bb3e 7eca 4ebf 53a9 043f

embed_layers.embed_7.weight f4 [39, 8]
0.7300004 0.4248313 0.63201636 -0.24782087 1.2952796 0.4761192 1.708826 -1.7141005
-0.042263336 -0.43680957 0.6714509 -0.8588031 0.56588644 -1.3671205 0.9723202 -1.2372236
-0.24421577 0.51721424 0.22756189 -0.21048912 -0.049706917 1.7940671 -0.70502317 -0.18027776
-1.6187652 -0.0016751216 0.85004795 -0.4929391 -0.5835163 -0.5354765 -0.9329465 1.0136573
-2.3884408 0.7399311 0.8038412 -0.25541744 1.3607769 -1.436587 -1.8355389 -1.0652411
0.40083283 -0.35576594 0.02955363 0.6567435 -0.82575023 0.23337168 -0.044381775 0.45453352
1.5000944 -0.1663315 0.8729121 -1.1389241 0.92024076 -0.7409244 -0.68446463 0.7025519
0.93207204 0.9002221 -0.12728557 -1.4805026 0.325271 0.34234124 0.17077993 1.0421348
-1.9353237 0.60398144 -0.35117158 0.16146699 1.0908746 0.23652054 0.918733 0.95320094
0.7631757 0.6321069 -0.5504781 0.31673977 0.21310283 1.5084647 -0.38065055 -0.79163116
-1.412878 -0.5561468 -1.5262613 -0.6738014 -0.98481673 -1.1819189 0.2749199 -1.3061911
-0.3383027 0.31707695 -1.3658519 -0.19004668 -1.4827337 -0.29831916 0.35882747 0.113577016
0.3583633 0.10665054 -1.8640642 1.1490724 0.91051036 0.37119916 -0.78904045 -0.65262663
0.87122625 -1.072919 -1.2221292 2.1198943 -0.94741446 -0.42368135 0.5367735 0.27489868
0.5261609 -1.3315923 -0.49477375 1.1009631 0.87470067 0.33357832 1.3524982 0.6031697
0.8157568 -0.7070312 -0.5616986 0.16459933 0.073176324 -0.47702172 -0.46538383 -0.23104253
1.1862676 1.3348947 0.67875886 -0.40631005 -0.32936388 -0.062226187 1.4133503 -0.17790756
0.90131503 0.24297066 1.0913103 0.1415572 2.232106 0.29976618 -1.1960032 1.6650423
-1.3933674 1.9371989 -0.46341273 -0.8273545 -0.31742194 -1.0667545 0.20618781 0.35710967
-1.785539 -0.41899994 -1.1391265 0.7463297 1.7020828 -0.76221424 -1.2713801 0.53020644
-0.90244967 -0.71487707 -1.3897326 0.137679 -1.3187475 -0.49277025 -0.83368385 -2.6754808
2.1938634 -0.7011461 0.5000189 0.7433307 -1.1473266 -0.845467 0.46001548 0.5708615
-1.3850647 2.4758246 -0.04451627 -0.13195883 -1.135821 0.79775226 0.21978717 1.1139693
0.94957685 0.17200798 0.32781327 -0.2790876 -0.0032164091 1.4141278 -0.37320325 0.39222088
-0.58992743 0.89384043 0.92395175 -1.1076298 -0.89394015 0.32619408 -0.13114552 -0.17864798
-0.042649906 -0.8049293 0.106041886 0.9662011 0.03132544 -1.2711409 -0.6345284 0.4464029
-0.93801063 1.4883729 -0.00042427814 0.3271929 1.0913566 0.83329624 -0.60073453 1.3104751
1.631095 0.4166185 0.8086358 -1.599304 -0.57299596 0.56941175 -0.549415 1.187035
-0.8627744 0.026769232 -0.5339361 0.7109462 -1.4294367 3.2490764 0.7000415 -1.6515101
1.3618368 -0.47031894 -0.7025648 -1.483653 1.0203146 0.9972806 -1.5697984 0.26838374
0.21004614 0.32849422 -0.2035693 -0.6083042 -1.4110814 -1.0452877 0.24262539 0.0941479
0.19648954 1.4258218 -0.092640325 -0.36289042 -0.13332807 -0.33140352 0.7429893 0.7677397
00000000: 4ee1 3a3f 7d83 d93e d3cb 213f c1c4 7dbe
00000010: b9cb a53f e5c5 f33e cfba da3f a567 dbbf
00000020: 521c 2dbd 81a5 dfbe 35e4 2b3f 85da 5bbf
00000030: efdd 103f cefd aebf fae9 783f 585d 9ebf
00000040: b313 7abe 2768 043f fc05 693e 768a 57be
00000050: 7b99 4bbd fea3 e53f 667c 34bf bc9a 38be
00000060: b333 cfbf c18f dbba be9c 593f 8462 fcbe
00000070: 5361 15bf fd14 09bf 95d5 6ebf 86bf 813f
00000080: 37dc 18c0 206c 3d3f 89c8 4d3f 13c6 82be
00000090: f02d ae3f 15e2 b7bf f0f2 eabf d259 88bf
000000a0: f639 cd3e f426 b6be 741a f23c 5820 283f
000000b0: 5e64 53bf fcf8 6e3e aac9 35bd 9eb8 e83e
000000c0: 1803 c03f ce52 2abe 2b77 5f3f 44c8 91bf
000000d0: e694 6b3f 39ad 3dbf 1339 2fbf 71da 333f
000000e0: 469c 6e3f f574 663f 2657 02be 1c81 bdbf
000000f0: ec89 a63e 5a47 af3e efe0 2e3e ac64 853f
00000100: b0b8 f7bf 879e 1a3f c3cc b3be 9a57 253e
00000110: c7a1 8b3f 7132 723e 1632 6b3f fa04 743f
00000120: 7c5f 433f c2d1 213f 22ec 0cbf b72b a23e
00000130: a137 5a3e 5f15 c13f a1e4 c2be 57a8 4abf
00000140: 30d9 b4bf a35f 0ebf 885c c3bf 407e 2cbf
00000150: f31c 7cbf 1e49 97bf 4dc2 8c3e 4531 a7bf
00000160: 0336 adbe e957 a23e 3cd4 aebf 999b 42be
00000170: 38ca bdbf 4abd 98be 3cb8 b73e 119b e83d
00000180: 657b b73e 996b da3d a899 eebf ce14 933f
00000190: 3517 693f d10d be3e 8efe 49bf 8a12 27bf
000001a0: af08 5f3f 6955 89bf bb6e 9cbf 59ac 0740
000001b0: c189 72bf c3ec d8be fd69 093f 85bf 8c3e
000001c0: 7bb2 063f 9e71 aabf fc52 fdbe 5cec 8c3f
000001d0: 62ec 5f3f c7ca aa3e a91e ad3f 5469 1a3f
000001e0: 70d5 503f ffff 34bf 7bcb 0fbf ba8c 283e
000001f0: 78dd 953d 313c f4be ca46 eebe 6a96 6cbe
00000200: 9ed7 973f d4dd aa3f 24c3 2d3f df07 d0be
00000210: 62a2 a8be e3e0 7ebd aae8 b43f 662d 36be
00000220: 95bc 663f 4dcd 783e 0eb0 8b3f 5ff4 103e
00000230: d3da 0e40 f47a 993e a216 99bf 1b20 d53f
00000240: dd59 b2bf 22f6 f73f 6f44 edbe 81cd 53bf
00000250: 2185 a2be 698b 88bf e622 533e 14d7 b63e
00000260: 8b8c e4bf 2987 d6be e6ce 91bf 770f 3f3f
00000270: d9dd d93f 7920 43bf 95bc a2bf 9cbb 073f
00000280: f106 67bf 2f02 37bf c2e2 b1bf b9fb 0c3e
00000290: b8cc a8bf 624c fcbe 4e6c 55bf 143b 2bc0
000002a0: 4268 0c40 507e 33bf 3d01 003f ec4a 3e3f
000002b0: 99db 92bf 8670 58bf 2687 eb3e fb23 123f
000002c0: cd49 b1bf e973 1e40 b156 36bd 3720 07be
000002d0: 9562 91bf 7e39 4c3f e30f 613e 8c96 8e3f
000002e0: 7817 733f dc22 303e 24d7 a73e 92e4 8ebe
000002f0: 64ca 52bb 2402 b53f 7f14 bfbe 2dd1 c83e
00000300: 7c05 17bf bad2 643f 1a88 6c3f d0c6 8dbf
00000310: 43d9 64bf e902 a73e 034b 06be 7fef 36be
00000320: abb1 2ebd d90f 4ebf 7d2c d93d f558 773f
00000330: 1b4f 003d bfb4 a2bf 7470 22bf ec8e e43e
00000340: 7721 70bf 0183 be3f a671 deb9 d485 a73e
00000350: 93b1 8b3f e752 553f bdc9 19bf a6bd a73f
00000360: b9c7 d03f 054f d53e c102 4f3f feb5 ccbf
00000370: ddaf 12bf f8c4 113f 76a6 0cbf c3f0 973f
00000380: c8de 5cbf 264b db3c 09b0 08bf 9200 363f
00000390: c8f7 b6bf def0 4f40 eb35 333f af64 d3bf
000003a0: ab50 ae3f a5cd f0be 49db 33bf 57e8 bdbf
000003b0: ab99 823f c84d 7f3f 27ef c8bf 9869 893e
000003c0: 5616 573e 6530 a83e 7874 50be d3b9 1bbf
000003d0: 519e b4bf fdcb 85bf ca72 783e 9dd0 c03d
000003e0: 8e34 493e 5481 b63f 36ba bdbd c6cc b9be
000003f0: 2787 08be b9ad a9be 8c34 3e3f 978a 443f

embed_layers.embed_8.weight f4 [2, 8]
-0.3775375 -0.58129257 -2.049811 2.0019476 0.9586018 -0.8351383 1.766045 0.24642023
2.126223 1.951504 -0.18258591 -0.7548473 0.09426478 -0.4816096 0.5131269 0.37754053
00000000: 984c c1be 97cf 14bf 1a30 03c0 e91f 0040
00000010: ed66 753f a0cb 55bf c30d e23f 9655 7c3e
00000020: 0a14 0840 e2ca f93f cdf7 3abe ac3d 41bf
00000030: e50d c13d 8995 f6be 495c 033f fe4c c13e

embed_layers.embed_9.weight f4 [908, 8]
-1.6716272 -0.9973582 -0.011981025 0.13136852 0.41575387 0.7597694 -0.80835307 0.47422722
-0.8768762 0.90958345 -0.5836338 1.083266 -0.011953344 0.6772745 0.019331371 0.52485913
-1.327608 -0.18870008 0.67771196 2.7877882 0.59050417 -0.79776174 1.8268412 0.5189631
0.7873469 -1.1960702 -0.43708047 -1.1247147 0.07209815 0.022433799 -0.8934994 0.6211946
1.070651 0.49154592 -0.25406763 0.7801654 -0.93699586 -0.072075576 -1.7412573 1.7741059
2.1017513 -0.5908916 0.29427055 -0.021219935 1.0775197 0.6279834 -0.47743666 -0.6010008
0.8091724 0.39060527 1.0037036 -1.3912452 0.64263177 -1.0387893 -1.1901853 1.0371251
-0.47502366 0.33144274 -0.08176363 0.26272613 0.12148159 -0.5168034 1.0216812 0.22143057
-1.0262566 -0.8885693 -0.38657707 -1.6009336 0.47394368 2.0220964 1.9045271 0.025617922
-0.12190255 -0.30017036 -0.41914195 -0.9139154 0.58901894 0.7462615 -0.59689766 -0.15004954
1.1948256 -1.0578618 -0.57231903 -0.88250405 -0.08719468 -1.1026353 -0.90271616 -2.231544
0.25985712 0.23306103 0.10470265 0.243942 -0.76510733 -0.20136271 -0.55313617 0.031400252
0.76388645 0.61220765 -2.390308 0.4178087 -0.13363959 0.6402411 -0.62613535 1.0018954
1.597978 -0.40440783 -0.28719488 -0.5758507 1.2967029 -0.9091087 0.32416725 -0.32261035
0.16445516 -1.0409209 -0.27125016 1.7956464 0.4948975 0.6229795 -0.026030716 -1.3957957
2.0106788 1.2240417 0.37090313 -0.035008553 1.32638 2.2010698 1.9167734 -0.36067814
-0.6755666 1.0424228 0.056272384 -0.8083783 -0.010101664 0.14308482 0.89367425 -0.29886556
0.38574544 -0.032290593 -0.3415742 0.15989201 0.45628536 -0.23005027 0.42644152 -1.1829607
-0.5348132 0.660356 0.34650153 0.7273709 -0.9232652 0.53467214 0.7542924 0.6436081
0.7389645 2.1552334 -1.662891 -2.5994852 0.5288403 -0.020831564 1.0455891 0.8840096
-2.1906042 -0.5498546 1.0674434 -1.6078296 2.7542138 -0.24373147 -0.3746842 -0.8454856
0.9560884 -0.58848476 -0.77919555 -1.5280445 -0.6090749 1.1583109 1.3548485 0.63110936
-0.29784656 0.2140449 -0.44094503 0.31876117 0.54302263 -0.8210682 0.7819865 1.2230163
0.63661855 0.7358503 -0.101553276 -1.3686087 1.0013986 1.027845 -0.9296744 -1.2429872
0.521465 -1.6906716 0.68263495 1.6709121 -0.8624046 2.6330323 1.3029642 -1.2386142
0.15959644 -1.1882155 0.03530622 -0.91535985 -1.365235 0.43718243 -1.0520232 0.08654007
-1.1760048 -0.03850311 0.5166374 0.2671297 1.7676888 0.07194949 -0.6772379 -0.14353512
-0.18306358 0.7516415 -0.98695964 1.3065563 -1.38202 0.3614781 0.23283674 1.2126242
-3.0155807 1.0219692 -0.65487206 -0.5322685 0.98006696 1.0400662 -1.2953384 -0.46155208
0.98248214 2.4611387 0.08287327 -0.42568818 0.026867962 0.39417815 1.1456181 1.857092
0.67116153 2.1390314 1.0886912 -0.82974195 0.046255693 1.4024595 1.2785119 -2.2776666
0.42705396 -0.27776843 -0.6056249 -0.55481696 1.2350256 -0.25049254 -0.6872892 1.4624302
00000000: e1f7 d5bf de52 7fbf 104c 44bc 7885 063e
00000010: b1dd d43e 3f80 423f 3af0 4ebf e9cd f23e
00000020: f57a 60bf 76da 683f 0669 15bf 76a8 8a3f
00000030: f5d7 43bc dd61 2d3f d35c 9e3c 2b5d 063f
00000040: 0fef a9bf 983a 41be 887e 2d3f 1f6b 3240
00000050: 482b 173f 1d3a 4cbf efd5 e93f c4da 043f
00000060: 918f 493f d418 99bf 03c9 dfbe a7f6 8fbf
00000070: 32a8 933d 16c7 b73c 60bc 64bf 9c06 1f3f
00000080: 180b 893f e8ab fb3e 2715 82be ebb8 473f
00000090: f6de 6fbf 5c9c 93bd 85e1 debf e715 e33f
000000a0: 1883 0640 ac44 17bf a1aa 963e 6ed5 adbc
000000b0: 2aec 893f 85c3 203f 9472 f4be 30db 19bf
000000c0: ec25 4f3f 6afd c73e 5c79 803f 5314 b2bf
000000d0: 8483 243f 0cf7 84bf fe57 98bf 84c0 843f
000000e0: 4d36 f3be ddb2 a93e b173 a7bd 0a84 863e
000000f0: 57cb f83d 3a4d 04bf 73c6 823f b2be 623e
00000100: 605c 83bf 4779 63bf 6eed c5be 64eb ccbf
00000110: bfa8 f23e 076a 0140 8bc7 f33f addc d13c
00000120: 0ba8 f9bd eeaf 99be c699 d6be 5cf6 69bf
00000130: f2c9 163f fe0a 3f3f 49ce 18bf 96a6 19be
00000140: 0cf0 983f 0468 87bf 8083 12bf c9eb 61bf
00000150: 2093 b2bd 2723 8dbf 6818 67bf 9ed1 0ec0
00000160: fe0b 853e 8da7 6e3e 586e d63d efcb 793e
00000170: 13de 43bf 0732 4ebe 559a 0dbf 8d9d 003d
00000180: 108e 433f a4b9 1c3f cefa 18c0 06eb d53e
00000190: d1d8 08be d7e6 233f 684a 20bf 1c3e 803f
000001a0: 8b8a cc3f 8b0e cfbe 350b 93be f46a 13bf
000001b0: 5cfa a53f 59bb 68bf 40f9 a53e 2f2d a5be
000001c0: ef66 283e e53c 85bf 4de1 8abe bed7 e53f
000001d0: 3563 fd3e 967b 1f3f 5e3e d5bc 6fa9 b2bf
000001e0: f6ae 0040 66ad 9c3f 04e7 bd3e 2165 0fbd
000001f0: d2c6 a93f 54de 0c40 d558 f53f ceaa b8be
00000200: eff1 2cbf 1c6e 853f df7d 663d e1f1 4ebf
00000210: 7381 25bc d484 123e d6c7 643f e804 99be
00000220: 6d80 c53e 2443 04bd d0e2 aebe bbba 233e
00000230: 3c9e e93e 4c92 6bbe 8b56 da3e 426b 97bf
00000240: 85e9 08bf 170d 293f a668 b13e fb34 3a3f
00000250: 1c5b 6cbf 46e0 083f 4f19 413f 80c3 243f
00000260: c72c 3d3f 58ef 0940 9dd9 d4bf f75d 26c0
00000270: 1462 073f f5a6 aabc ddd5 853f 744e 623f
00000280: dc32 0cc0 45c3 0cbf fca1 883f 5ccd cdbf
00000290: 0a45 3040 be94 79be 9cd6 bfbe bf71 58bf
000002a0: 36c2 743f f0a6 16bf 5c79 47bf f696 c3bf
000002b0: 55ec 1bbf 8843 943f ad6b ad3f 6290 213f
000002c0: 587f 98be 962e 5b3e 8cc3 e1be aa34 a33e
000002d0: 8803 0b3f 8731 52bf 4430 483f cc8b 9c3f
000002e0: 6ff9 223f af60 3c3f 2afb cfbd 922e afbf
000002f0: d42d 803f 6d90 833f 24ff 6dbf 341a 9fbf
00000300: bb7e 053f ed67 d8bf 2ac1 2e3f 73e0 d53f
00000310: 8cc6 5cbf 9a83 2840 88c7 a63f e98a 9ebf
00000320: 406d 233e 7217 98bf 419d 103d 0655 6abf
00000330: 05c0 aebf 60d6 df3e b2a8 86bf ec3b b13d
00000340: 5387 96bf 70b5 1dbd 5942 043f 39c5 883e
00000350: a043 e23f 415a 933d 775f 2dbf dffa 12be
00000360: 0575 3bbe 946b 403f 63a9 7cbf 3d3d a73f
00000370: 08e6 b0bf a813 b93e c16c 6e3e 4537 9b3f
00000380: 46ff 40c0 e3cf 823f b2a5 27bf c042 08bf
00000390: abe5 7a3f e420 853f a6cd a5bf 8e50 ecbe
000003a0: f383 7b3f 4c83 1d40 76b9 a93d cdf3 d9be
000003b0: 331a dc3c b8d1 c93e 9da3 923f 31b5 ed3f
000003c0: 3ed1 2b3f e4e5 0840 3c5a 8b3f f869 54bf
000003d0: 9c76 3d3d cb83 b33f 47a6 a33f 4ac5 11c0
000003e0: d1a6 da3e aa37 8ebe 3c0a 1bbf 7c08 0ebf
000003f0: 5215 9e3f 8f40 80be 2ff2 2fbf ea30 bb3f
