Additional Project/task3/Rank/Compare1/Wide_Deep/model/wide_deep_model.pth (torch, 823273 bytes, 34 tensors)

embed_layers.embed_0.weight f4 [79, 8]
-0.58261126 -0.15140708 0.44220224 0.15938082 0.98044235 -0.39932576 -0.5473813 0.1126283
0.3717528 -0.57795286 0.599442 0.3824253 -1.4423407 0.9894631 0.027525159 0.27241346
1.1485422 1.0070386 0.98987645 1.4723637 -1.0449613 -0.89561236 0.21392855 0.05732349
-1.5573008 0.51650035 1.0875596 -0.3534875 -0.3325118 0.05222797 0.71043354 -0.72649723
0.36435997 0.81299084 -0.08532809 0.04350829 -1.6902784 1.0839095 0.9252365 0.32069707
0.14387222 -0.7269869 1.8449715 0.49304762 2.0695798 -0.75075763 0.7422985 -0.11431604
0.77520055 1.6608764 0.258859 -0.34234217 -0.38607422 -0.26366696 0.40181524 0.52700984
-0.7684233 0.06285424 -0.027963523 0.13244109 -0.6476762 -0.32391 -2.0532436 0.9758661
1.0573468 -1.1510254 0.927203 -1.346621 0.9060115 0.8377503 0.31057778 -0.19809006
0.8362719 -0.08811074 0.03306 -0.064789385 0.91130227 -0.36497927 -0.89057356 0.15686156
0.66823214 0.3744545 -1.033574 1.9943767 -0.48462296 -0.29596233 -0.8709515 -1.2172462
1.5757824 -0.7756471 -0.33800524 0.41188946 0.058939427 1.3822131 0.16874996 1.4569769
-1.183948 0.20234153 0.977623 -1.3360413 -0.07224152 0.071082376 1.1045986 -0.64906114
-1.8508178 1.1673317 1.3021635 1.1624913 1.1484523 0.7314216 -1.0138801 0.96715814
0.7243509 -0.7930752 -0.8737792 0.6660558 -1.4234506 1.3340465 0.7524096 -0.6143696
-0.23497815 0.005376111 1.5510613 0.08062317 0.31346232 -1.0004524 -1.0369076 -0.67232656
-0.15350008 -0.46205378 0.8372404 -1.513217 -0.5140615 -0.8134881 -0.2919045 0.285969
0.7783929 0.6416345 0.62020487 0.4695512 0.054025088 0.5335033 1.5054371 1.9950615
-0.97826356 -1.7698156 0.5804658 2.9358416 0.2433581 1.694988 0.30986792 0.4225547
0.98873687 -0.22705913 1.848138 1.1154777 -0.4071881 0.59178585 1.1229296 -0.6720727
0.49788046 0.00600092 -0.77937406 1.4521438 -1.0489407 -0.38444886 0.3065703 0.102876686
-0.97604287 -2.2155077 -0.7095579 -0.54419523 -0.5055881 -0.3592755 -1.8183182 0.38075745
-1.1536427 -1.9830894 0.28317162 1.1310201 -0.18967979 1.3344508 1.5323905 0.6717428
-0.6390638 -0.99498516 -1.5327029 -1.0600296 -0.61455935 0.18292485 0.519064 0.5223322
-0.6723858 3.054874 -1.2275066 0.576158 0.9429264 0.5118911 -0.55984145 0.7478076
0.4342139 0.82755184 0.41880438 0.26444092 -0.17168075 -0.50884044 -1.5789783 -1.1713858
0.14811362 0.8845814 -2.5119848 -0.14694215 -0.657238 0.6074002 -2.5063598 0.7094033
0.35156155 -1.8036135 -0.22530268 -0.29533103 -1.3488075 -0.3282444 -1.1576654 -0.9610448
-0.39929417 1.013167 -0.46649984 0.06745889 -0.68670845 -0.25926512 1.740755 0.8067933
0.3350618 -0.18876721 0.92274857 1.3542589 0.19769274 -1.2859436 -0.6810451 0.1686377
-0.1158208 0.9572022 1.0781003 0.48293993 0.1422581 0.9198091 -0.9921951 -0.99704117
-0.66811967 0.85248 1.5584898 -1.3133768 0.08051256 0.3409093 -0.9152309 -0.060146492
00000000: 0326 15bf 750a 1bbe 5568 e23e ba34 233e
00000010: 45fe 7a3f 6d74 ccbe 2e21 0cbf aba9 e63d
00000020: 6256 be3e b8f4 13bf 0875 193f 40cd c33e
00000030: 9f9e b8bf 744d 7d3f 717c e13c c779 8b3e
00000040: 6e03 933f a4e6 803f 8b68 7d3f 6a76 bc3f
00000050: 4bc1 85bf da46 65bf 1610 5b3e 09cc 6a3d
00000060: a255 c7bf 5e39 043f 2735 8b3f 50fc b4be
00000070: fd3e aabe ffec 553d f9de 353f b9fb 39bf
00000080: 648d ba3e 2b20 503f 7ec0 aebd c035 323d
00000090: 0b5b d8bf 8cbd 8a3f 4ddc 6c3f 6832 a43e
000000a0: 3d53 133e d01b 3abf 0728 ec3f bd70 fc3e
000000b0: ff73 0440 a731 40bf 4607 3e3f 871e eabd
000000c0: 8b73 463f 9997 d43f 2b89 843e 7947 afbe
000000d0: 85ab c5be 5bff 86be baba cd3e 1eea 063f
000000e0: 64b7 44bf b9b9 803d c213 e5bc a39e 073e
000000f0: 1cce 25bf 88d7 a5be 5868 03c0 5cd2 793f
00000100: 2457 873f cd54 93bf 2d5d 6d3f 145e acbf
00000110: 5ff0 673f ce76 563f 0d04 9f3e 1fd8 4abe
00000120: ea15 563f 6773 b4bd ec69 073d 4cb0 84bd
00000130: 1b4b 693f 90de babe a1fc 63bf 51a0 203e
00000140: 4311 2b3f 80b8 bf3e 274c 84bf bc47 ff3f
00000150: 8020 f8be 6088 97be adf6 5ebf b9ce 9bbf
00000160: 3db3 c93f cf90 46bf 060f adbe 2de3 d23e
00000170: 786a 713d 5cec b03f cacc 2c3e 387e ba3f
00000180: 9c8b 97bf 9e32 4f3e 8045 7a3f 6703 abbf
00000190: 5df3 93bd a393 913d 7d63 8d3f df28 26bf
000001a0: 99e7 ecbf 206b 953f 4bad a63f 84cc 943f
000001b0: 7c00 933f 723e 3b3f d3c6 81bf ad97 773f
000001c0: 106f 393f fa06 4bbf feaf 5fbf a282 2a3f
000001d0: a133 b6bf 09c2 aa3f ea9d 403f 5347 1dbf
000001e0: 1d9e 70be 162a b03b 2d89 c63f c31d a53d
000001f0: 227e a03e d30e 80bf 63b9 84bf 981d 2cbf
00000200: 202f 1dbe 5092 ecbe 6355 563f 18b1 c1bf
00000210: 8999 03bf c240 50bf 8274 95be 876a 923e
00000220: c244 473f 2942 243f bfc5 1e3f 0469 f03e
00000230: 6949 5d3d ac93 083f 2ab2 c03f 2d5e ff3f
00000240: 7b6f 7abf 5189 e2bf 6899 143f d4e4 3b40
00000250: de32 793e 5ef5 d83f 02a7 9e3e 1759 d83e
00000260: dc1d 7d3f 3082 68be c98f ec3f f9c7 8e3f
00000270: f57a d0be 477f 173f 28bc 8f3f f50c 2cbf
00000280: 30ea fe3e 5ea3 c43b 0f85 47bf d9df b93f
00000290: b043 86bf 7bd6 c4be c8f6 9c3e 03b1 d23d
000002a0: f2dd 79bf e1ca 0dc0 96a5 35bf 6150 0bbf
000002b0: 396e 01bf f5f2 b7be a7be e8bf a4f2 c23e
000002c0: 90aa 93bf e0d5 fdbf dffb 903e 44c5 903f
000002d0: 6b3b 42be 49cf aa3f 5f25 c43f 56f7 2b3f
000002e0: af99 23bf 59b7 7ebf 9c2f c4bf 0daf 87bf
000002f0: c353 1dbf a750 3b3e 61e1 043f 90b7 053f
00000300: 7a21 2cbf 0e83 4340 f01e 9dbf 177f 133f
00000310: a063 713f 4c0b 033f c551 0fbf 5270 3f3f
00000320: 4951 de3e 70da 533f 876d d63e cd64 873e
00000330: 14cd 2fbe 5e43 02bf f61b cabf f8ef 95bf
00000340: 19ab 173e ed73 623f 5cc4 20c0 0178 16be
00000350: c040 28bf 947e 1b3f 3368 20c0 749b 353f
00000360: e0ff b33e cfdc e6bf bfb5 66be a135 97be
00000370: b9a5 acbf a60f a8be 612e 94bf 0807 76bf
00000380: 4970 ccbe 75af 813f 11d9 eebe e327 8a3d
00000390: 20cc 2fbf 66be 84be 0fd1 de3f 018a 4e3f
000003a0: 388d ab3e 314c 41be 4039 6c3f 5b58 ad3f
000003b0: f76f 4a3e cd99 a4bf f958 2ebf 5caf 2c3e
000003c0: 7533 edbd 340b 753f 31ff 893f e743 f73e
000003d0: 1bac 113e 9c78 6b3f 8000 7ebf 173e 7fbf
000003e0: e409 2bbf 213c 5a3f 987c c73f bb1c a8bf
000003f0: c5e3 a43d aa8b ae3e 924c 6abf 2b5c 76bd

embed_layers.embed_1.weight f4 [252, 8]
1.052279 0.9707037 0.20756304 0.2941228 -0.07792371 -1.4577454 0.79815793 1.6495478
0.22138187 -0.72227126 0.52293724 0.8929015 -0.72870153 1.2792206 -0.8346268 1.3886056
2.1099184 1.320166 0.26267257 0.07265943 -1.3567988 1.4260325 1.3194251 0.6589482
0.4654442 -0.45444208 0.2518813 0.29899943 0.90043104 1.5449404 -1.0482533 0.30615565
1.3596134 0.7336959 -0.619406 0.70483226 0.27956447 0.87024575 -0.3742296 -0.73124284
1.0560125 0.13231777 0.3664932 0.2635886 -0.98280513 0.47909272 0.27905542 1.3584821
-0.22240059 0.7903639 -0.7572942 -0.59154505 0.59768355 -0.55925685 0.6824212 -0.7996099
-0.03869002 -0.2065574 0.79588383 0.83037597 -0.78266746 -0.7126506 1.0669839 -1.1014047
0.3351281 -1.3415756 1.43247 0.01962759 -0.6865895 -0.24861023 0.5222067 -0.101618044
-0.48193076 -0.6350198 0.294698 0.7079506 1.416087 -0.44400895 -0.9908058 0.12179857
-0.49340954 -0.47077805 -0.664088 -1.4952943 -1.0136273 -0.046221804 -0.18348451 -1.1074075
-1.1205251 0.3539554 -0.44637358 1.167964 -0.35179162 -0.3436267 0.45683974 -0.81248355
-1.5166366 -1.877083 1.6174473 -0.73129267 -0.15046634 -1.54134 0.8447785 -0.60990345
-0.96256363 -0.41336152 -0.6835847 -0.040853597 1.1611208 1.3064637 -0.21609275 -1.5069928
-0.7612004 -0.17665637 0.1508615 1.0558645 0.43952212 -0.48097503 0.5571088 0.27038038
0.78601855 1.1047591 -0.7038647 0.44597682 -1.4462551 1.278784 0.6134606 0.025626041
1.247391 -0.98869187 0.013726785 -0.046498727 -0.049439494 0.548579 0.20857038 -0.6957144
-1.8841721 -0.7806443 0.4348877 -0.9646599 0.43137738 -0.49394378 -0.904961 -0.29921916
0.4135982 -1.0273367 0.4122399 0.117880896 1.1989429 0.8155192 -0.02009562 -0.08176221
-0.52882713 1.384597 1.7853149 -0.6484022 0.110251844 -2.2038026 0.28930494 -0.4620225
-1.3809763 -1.4102434 -0.9692445 0.3907976 -0.07720739 -0.3885346 -0.2697357 -0.30236077
0.74507135 1.825064 -0.50522727 -1.4103264 -1.0861902 0.81108487 -0.33098567 -0.7367541
-0.50280756 -0.318702 -1.4299072 -0.74799204 0.1351986 -1.3187865 0.03217713 -0.5574372
0.19012287 0.86975986 0.73417294 0.1587262 -1.4427973 0.74511015 -1.2277495 -0.09035407
0.72367185 -1.1410275 0.0726626 -1.9551818 0.3141989 -1.0729892 -0.69436693 1.0931205
-0.762854 -1.3215388 0.2607698 -1.1036437 0.91893154 0.13127308 1.3635751 0.21192199
0.47142714 1.2575169 1.0046573 -2.1295688 -0.7000427 -1.1229473 -3.3008463 0.16025513
0.20133324 0.39975283 -0.4909262 2.1229122 1.0180548 1.3398681 1.8032398 -0.3437956
0.7042209 -2.5074046 0.73933566 0.9029251 0.2204576 -0.1839455 1.567302 -0.5484988
-1.0424592 -0.4151244 0.6555002 1.958258 -0.30658475 -1.2582473 -1.0537093 0.47027808
0.39170077 -0.65187484 1.6542709 1.7898581 -1.1524395 0.4359344 -1.1677382 -1.9643372
0.33710763 1.5101833 0.2883613 -0.8701438 -1.2838036 0.42357552 -1.454933 -1.094828
00000000: 14b1 863f 0a80 783f 688b 543e 4397 963e
00000010: 7796 9fbd 6797 babf 1454 4c3f 6224 d33f
00000020: eeb1 623e c5e6 38bf 37df 053f 3195 643f
00000030: 2f8c 3abf 80bd a33f 1aaa 55bf d4bd b13f
00000040: e708 0740 33fb a83f 057d 863e 78ce 943d
00000050: 95ab adbf 3c88 b63f ece2 a83f d4b0 283f
00000060: b44e ee3e a2ac e8be 96f6 803e 7416 993e
00000070: a682 663f 9bc0 c53f 2a2d 86bf 6fc0 9c3e
00000080: d007 ae3f 7fd3 3b3f 6491 1ebf e36f 343f
00000090: 1323 8f3e 6dc8 5e3f 069b bfbe bb32 3bbf
000000a0: 6b2b 873f 4f7e 073e ffa4 bb3e 16f5 863e
000000b0: 1e99 7bbf a44b f53e 5ae0 8e3e bee2 ad3f
000000c0: fbbc 63be 4a55 4a3f 08de 41bf 7f6f 17bf
000000d0: ca01 193f 752b 0fbf 28b3 2e3f 3cb3 4cbf
000000e0: 6d79 1ebd c883 53be 0bbf 4b3f 8593 543f
000000f0: e55c 48bf 4570 36bf ee92 883f d4fa 8cbf
00000100: e995 ab3e c0b8 abbf 2d5b b73f 0aca a03c
00000110: 54c4 2fbf ae93 7ebe 57af 053f 1f1d d0bd
00000120: a1bf f6be a890 22bf a8e2 963e 403c 353f
00000130: 5742 b53f 2455 e3be 73a5 7dbf 8771 f93d
00000140: 2da0 fcbe d209 f1be ac01 2abf ce65 bfbf
00000150: 8abe 81bf 1353 3dbd 5de3 3bbe 87bf 8dbf
00000160: 5e6d 8fbf a439 b53e 148b e4be d87f 953f
00000170: 081e b4be d7ef afbe e6e6 e93e ecfe 4fbf
00000180: 2621 c2bf 4144 f0bf 8308 cf3f ff35 3bbf
00000190: d913 1abe a14a c5bf 6743 583f a222 1cbf
000001a0: 926a 76bf 1fa4 d3be 68ff 2ebf 1a56 27bd
000001b0: 9b9f 943f 343a a73f 6b47 5dbe 24e5 c0bf
000001c0: 08de 42bf 68e5 34be 707b 1a3e 9126 873f
000001d0: 0b09 e13e 5c42 f6be af9e 0e3f 4c6f 8a3e
000001e0: 8338 493f bf68 8d3f 7a30 34bf 1357 e43e
000001f0: e31e b9bf 32af a33f c10b 1d3f b4ed d13c
00000200: 82aa 9f3f e91a 7dbf 4fe6 603c 7375 3ebd
00000210: 1181 4abd ac6f 0c3f 7993 553e 571a 32bf
00000220: 8d2c f1bf 4ed8 47bf 9aa9 de3e f4f3 76bf
00000230: 7fdd dc3e 33e6 fcbe 86ab 67bf 4133 99be
00000240: 25c3 d33e c57f 83bf 1c11 d33e 8a6b f13d
00000250: f676 993f dec5 503f 929f a4bc f272 a7bd
00000260: 3761 07bf 793a b13f 3385 e43f b0fd 25bf
00000270: b8cb e13d 1a0b 0dc0 c71f 943e 378e ecbe
00000280: d5c3 b0bf db82 b4bf 6820 78bf 9f16 c83e
00000290: e81e 9ebd 02ee c6be cc1a 8abe 08cf 9abe
000002a0: ffbc 3e3f b29b e93f 9356 01bf 9385 b4bf
000002b0: 4808 8bbf 42a3 4f3f f476 a9be eb9b 3cbf
000002c0: ffb7 00bf e92c a3be 3307 b7bf 687c 3fbf
000002d0: 8071 0a3e ffcd a8bf 2bcc 033d 34b4 0ebf
000002e0: 92af 423e 95a8 5e3f c2f2 3b3f 1f89 223e
000002f0: 95ad b8bf 8abf 3e3f e526 9dbf 8e0b b9bd
00000300: 8f42 393f 300d 92bf 21d0 943d 6643 fabf
00000310: aede a03e b657 89bf 08c2 31bf 5feb 8b3f
00000320: 664a 43bf 2f28 a9bf 9f83 853e 3244 8dbf
00000330: 193f 6b3f 736c 063e a189 ae3f 1402 593e
00000340: e65e f13e 50f6 a03f 9c98 803f db4a 08c0
00000350: 0036 33bf bdbc 8fbf 1141 53c0 ec19 243e
00000360: 4d2a 4e3e 67ac cc3e ae5a fbbe cbdd 0740
00000370: 9f4f 823f cc80 ab3f 90d0 e63f fa05 b0be
00000380: d247 343f 5179 20c0 1a45 3d3f 1926 673f
00000390: a3bf 613e 365c 3cbe 5a9d c83f 6b6a 0cbf
000003a0: 4e6f 85bf 2f8b d4be dcce 273f 33a8 fa3f
000003b0: adf8 9cbe 3f0e a1bf f2df 86bf 4ac8 f03e
000003c0: 018d c83e 45e1 26bf 26bf d33f 121a e53f
000003d0: 2383 93bf cb32 df3e 7278 95bf 676f fbbf
000003e0: 5f99 ac3e b04d c13f 18a4 933e bec1 5ebf
000003f0: ad53 a4bf e4de d83e 3f3b babf 5323 8cbf

embed_layers.embed_2.weight f4 [1293, 8]
0.55576396 0.97074276 -0.40562493 -1.2541406 -1.1952617 -0.50687665 2.913412 1.8785603
0.96175534 1.5892394 -0.91797423 1.7262677 1.0015793 -0.46780512 0.22032 0.94588447
-0.028125126 -0.83137643 -3.0480688 1.182472 1.3460735 -0.24426197 0.6658981 -0.056006595
1.4359157 0.9718029 0.1602447 -0.58506656 -0.9739697 0.4640732 -0.857107 0.09670718
-0.013054393 -0.53511924 1.0323328 0.5002696 -0.229325 -2.4204009 -0.81384635 0.37492517
0.6858231 1.4006373 -0.6062151 -0.06716649 2.083965 1.5716809 1.933644 0.7210367
-1.2291365 -1.060715 -0.5656504 -1.0286778 -2.6398847 0.6303557 -0.9295191 0.41769442
0.7736056 -1.1027529 -0.4138702 0.9754416 0.5235015 -1.2448245 0.5516926 0.053436078
-0.3085307 1.3142263 -0.19738546 -0.65143365 1.7042718 -1.8142787 -1.0653644 -1.5744407
1.4291866 2.8555486 2.0611987 -1.1527474 0.78540456 -2.3940077 1.2859042 -0.5252538
-1.0959558 -0.6528313 0.34118322 1.1562648 1.5539378 -0.35230651 -1.1041625 0.0844559
-0.12557085 -0.1553851 -1.1337746 0.06322282 0.92376405 0.44476238 -0.6852838 -0.04921831
-0.48347455 0.8038543 1.2554035 0.47361195 1.2438666 -0.380389 -1.3947757 -1.0536406
-0.009005419 1.4335772 1.1426305 -0.927791 0.6281988 -0.24561921 1.2058525 0.22517477
-1.3819557 0.26305792 -0.9438684 -0.08926792 0.124660596 0.09778062 -0.92296386 0.39505917
0.8270328 -0.83336127 0.48344496 -0.07366398 1.5358726 1.2777303 0.049452744 -0.38341796
0.7757149 0.16114374 0.31614336 -1.1553447 -0.88580894 1.8547157 -0.638034 0.18597886
0.5226203 -0.65034014 0.2980799 0.5741569 0.13745534 0.69704026 0.7730087 -0.117591806
-0.8836464 -0.0961308 -0.12578672 1.2921036 0.9373046 0.18069062 0.0110269375 -0.6876091
1.4903178 -0.19692852 -0.22342394 0.8020278 -0.39625105 0.72145253 0.14739764 0.6039764
-0.9946479 -0.0039935415 0.63115984 -1.7365758 1.513949 0.412984 0.20867622 -0.49279222
1.513288 0.10091038 1.0410684 -0.6022851 -0.37703553 -0.4959076 -0.18954478 -0.34774065
0.28610766 -0.39626753 0.1624003 0.9542012 -1.1947682 0.9695019 0.5107738 1.5396094
0.6861651 0.8820173 -0.11359002 -0.52452123 0.23604563 0.08868008 -0.91241217 0.8121092
-0.20252244 0.9810605 -0.63283944 0.97199637 0.23449802 -0.18266484 -0.8827314 0.79144937
0.1530899 0.455303 0.44216034 -1.2240568 -1.5538325 0.6766643 0.9803538 -0.7982565
0.69474 -0.3145018 0.19533762 1.0889325 -0.74041367 -0.7049556 1.2998369 0.065541044
1.5254292 1.6729858 -0.68262213 -0.5159775 2.674135 0.40878525 -0.34379792 1.2107811
-0.41233253 0.34232882 0.12723666 -1.0912017 0.22035326 -0.63072765 0.5047655 -1.1913275
-1.3978567 -1.6077691 0.746798 -0.53537357 0.06638592 0.40366554 -0.59652966 0.172978
0.14171417 -0.3953962 2.478305 0.84620273 0.12848295 1.003727 0.22392435 -0.300348
0.060654067 -0.052439857 -0.36890867 1.013772 -1.0815797 -0.117220476 -1.400362 1.1304094
00000000: 8c46 0e3f 9982 783f 12ae cfbe ae87 a0bf
00000010: 56fe 98bf abc2 01bf 5875 3a40 aa74 f03f
00000020: 9935 763f 326c cb3f 5c00 6bbf 57f6 dc3f
00000030: c033 803f 2784 efbe 919b 613e 7c25 723f
00000040: aa66 e6bc 16d5 54bf 8f13 43c0 3e5b 973f
00000050: 234c ac3f cf1f 7abe 4c78 2a3f 2c67 65bd
00000060: 16cc b73f 13c8 783f 3017 243e ecc6 15bf
00000070: 1456 79bf 019b ed3e 5d6b 5bbf 6a0e c63d
00000080: 18e2 55bc 93fd 08bf 7b23 843f ab11 003f
00000090: 2cd4 6abe d9e7 1ac0 3c58 50bf 31f6 bf3e
000000a0: 1a92 2f3f 1548 b33f ea30 1bbf 968e 89bd
000000b0: af5f 0540 d72c c93f a681 f73f dc95 383f
000000c0: 5854 9dbf 82c5 87bf 77ce 10bf b7ab 83bf
000000d0: dff3 28c0 fe5e 213f f7f4 6dbf 0bdc d53e
000000e0: 040b 463f 0227 8dbf cbe6 d3be 8ab6 793f
000000f0: 3204 063f 6956 9fbf ba3b 0d3f cadf 5a3d
00000100: bcf7 9dbe 9138 a83f 6a1f 4abe 5bc4 26bf
00000110: 9425 da3f 493a e8bf dc5d 88bf 4687 c9bf
00000120: 96ef b63f 4fc1 3640 aeea 0340 3a8d 93bf
00000130: 4610 493f 6c37 19c0 8298 a43f 0877 06bf
00000140: 4848 8cbf f41f 27bf 91af ae3e 7c00 943f
00000150: 6fe7 c63f 8561 b4be 3255 8dbf 37f7 ac3d
00000160: a595 00be 461d 1fbe 871f 91bf f77a 813d
00000170: cd7b 6c3f e5b7 e33e c26e 2fbf 2399 49bd
00000180: fa89 f7be 65c9 4d3f 10b1 a03f 447d f23e
00000190: 0537 9f3f 59c2 c2be 0388 b2bf b2dd 86bf
000001a0: 778b 13bc 757f b73f b741 923f b683 6dbf
000001b0: a3d1 203f 9a83 7bbe 6059 9a3f 3794 663e
000001c0: ede3 b0bf 87af 863e 5ca1 71bf 19d2 b6bd
000001d0: 0e4e ff3d 3541 c83d 5c47 6cbf 3245 ca3e
000001e0: 6cb8 533f 2a57 55bf 1986 f73e 24dd 96bd
000001f0: 7997 c43f ab8c a33f f68e 4a3d 5c4f c4be
00000200: 4095 463f dd02 253e 8bdd a13e 56e2 93bf
00000210: 60c4 62bf 5367 ed3f 3256 23bf 3e71 3e3e
00000220: 72ca 053f b17c 26bf ee9d 983e f2fb 123f
00000230: 18c1 0c3e 3b71 323f e6e3 453f f9d3 f0bd
00000240: a736 62bf 3ae0 c4bd 3cce 00be a763 a53f
00000250: 32f3 6f3f f606 393e 54aa 343c 2607 30bf
00000260: bcc2 be3f a1a7 49be 3fc9 64be b251 4d3f
00000270: 6be1 cabe 1db1 383f 68ef 163e 339e 1a3f
00000280: 3fa1 7ebf 41dc 82bb b193 213f 1e48 debf
00000290: 15c9 c13f a472 d33e 38af 553e 434f fcbe
000002a0: 6cb3 c13f 1aaa ce3d bb41 853f 5b2f 1abf
000002b0: cd0a c1be 9ae7 fdbe 0718 42be 100b b2be
000002c0: b47c 923e 94e3 cabe 444c 263e 8846 743f
000002d0: 2aee 98bf 4731 783f 12c2 023f ec11 c53f
000002e0: 84a8 2f3f e3cb 613f e2a1 e8bd 0647 06bf
000002f0: f2b5 713e e79d b53d d893 69bf 63e6 4f3f
00000300: 0b62 4fbe c826 7b3f c401 22bf c1d4 783f
00000310: 4020 703e 7e0c 3bbe affa 61bf 6d9c 4a3f
00000320: 99c3 1c3e 7a1d e93e d762 e23e e5ad 9cbf
00000330: fce3 c6bf df39 2d3f 77f8 7a3f 8a5a 4cbf
00000340: 7bda 313f 6106 a1be 9606 483e 2462 8b3f
00000350: c08b 3dbf f877 34bf 0e61 a63f 623a 863d
00000360: 4441 c33f 6624 d63f 53c0 2ebf 1a17 04bf
00000370: 0725 2b40 4d4c d13e 4806 b0be e0fa 9a3f
00000380: 401d d3be b945 af3e 544a 023e 7fac 8bbf
00000390: 49a4 613e 5e77 21bf 5038 013f 6b7d 98bf
000003a0: f8ec b2bf 61cb cdbf 272e 3f3f 3e0e 09bf
000003b0: 57f5 873d 40ad ce3e 2bb6 18bf 2521 313e
000003c0: 851d 113e 5f71 cabe 8d9c 1e40 bea0 583f
000003d0: 0991 033e 207a 803f 6d4c 653e 37c7 99be
000003e0: 6670 783d 2dcb 56bd 99e1 bcbe 48c3 813f
000003f0: 3471 8abf 4a11 f0bd 103f b3bf 41b1 903f

embed_layers.embed_3.weight f4 [1043, 8]
0.5288168 0.4876632 0.2857642 -0.29760405 -0.26499522 3.1712773 -1.1427821 -0.9786439
-0.234099 1.2336723 -2.2269466 0.7948097 -1.1167086 -0.11679666 0.30332884 0.045673553
-1.2845929 1.8091298 0.33257046 0.8427724 0.3393835 0.09580545 0.67858 0.68049145
-0.45127335 0.124580316 0.22890618 -0.119500786 1.5348024 0.07357719 1.55126 -0.9765845
-0.10077079 0.60396594 1.1363287 -1.7271891 -1.2088815 -1.159321 -0.39686242 -0.67248565
0.11737515 -0.65985537 -0.43528992 0.9934335 -0.48917976 -0.6611188 1.6793563 -0.75586945
-0.10402477 1.4644152 -0.3954407 -0.5406583 0.6038525 -1.0395905 -0.14865917 -0.989022
-0.03681567 0.31579533 -0.28529754 -0.14793356 -0.55661786 -2.0715282 0.29269138 -0.44291794
0.031523008 -0.36730495 -0.4263443 -0.35060665 -0.8087865 1.8041096 0.9984852 -0.055258468
1.3757528 -0.29615864 -1.5677822 -1.2768135 1.4672381 -0.64917547 -1.205118 0.20307285
-1.3706775 -1.1255045 -1.68518 -1.0908328 -0.8087052 -0.38586774 -2.371846 0.0946939
-1.8127427 -1.1795048 0.29563975 0.030968018 -0.903096 -0.1761905 -0.3866203 0.057813764
0.35386497 -0.25949213 -0.5964804 -0.1786124 0.38451877 -0.64633036 0.13053097 -0.85711354
0.033202503 1.4556998 -0.36678734 0.65699244 0.1649137 -0.2948644 -1.0895522 1.2073029
-0.79763955 -0.50953823 -0.31695673 -0.12775725 0.72246003 -0.11600481 -1.1018807 0.51526284
1.9897517 -0.27929053 1.2348416 -0.16095544 -0.028837994 -0.38111958 2.7027671 -1.8250413
1.3454487 -0.0691165 -0.26318553 0.71829045 0.16831365 -0.52989584 -0.48655096 0.09165003
0.12603907 1.212321 2.8234355 -0.38240057 -0.6141804 -0.2710297 0.012248369 -1.5251648
-0.92905974 0.23778579 -0.24845687 -0.78075284 0.19105865 -0.6239669 -0.05147279 1.664866
0.08929724 0.6498629 -0.37432668 1.086604 0.57422274 1.0642282 0.049845904 -1.2479223
0.38386518 0.73129225 -1.3138388 0.25065753 -0.22600564 1.2109499 0.808554 -1.0891879
-0.9146216 -1.1967394 -1.1685054 -0.6726012 -0.9272283 -0.077322714 -2.4960163 -1.4724181
-0.5531501 -1.2524979 1.1980351 1.0054812 0.65195984 -0.8268804 0.26559624 -0.6129496
0.99971676 -0.9629006 0.26875317 0.6678863 -0.07520816 -0.05994808 -0.976455 0.26764977
-0.045995906 -0.2028336 0.67524904 0.60994583 2.4827623 0.36930633 -0.9415948 0.47165167
2.1439729 1.6982008 0.088738 -0.63868433 -0.52010775 0.76760226 0.9999052 0.7654976
0.20088398 -0.40649313 -2.1565294 -0.3675735 -1.9348121 -1.2297255 1.5898373 -0.9889959
-0.603539 0.39637053 1.4398273 1.0990199 -0.27159587 -0.08507493 0.032538142 0.40619326
-1.2267803 0.041710515 -1.0141848 0.11993993 -0.5697899 1.0164062 -0.95927286 -0.35655794
1.3359231 0.1878584 -1.24341 -0.10339847 -0.809165 -1.3644118 -1.5376859 0.5039096
0.91439354 -1.5174395 -0.5761801 -0.09739308 -0.9326911 -0.55561733 -0.8091359 0.92247134
-0.17004919 0.06351599 -0.51322675 0.31034076 0.43752626 1.6671412 -0.7781022 -0.5873645
00000000: 8a60 073f feae f93e af4f 923e 8f5f 98be
00000010: 74ad 87be 35f6 4a40 af46 92bf 6888 7abf
00000020: a6b7 6fbe f9e8 9d3f 4b86 0ec0 a678 4b3f
00000030: 4ff0 8ebf 1633 efbd eb4d 9b3e 3114 3b3d
00000040: 8a6d a4bf 9191 e73f ad46 aa3e efbf 573f
00000050: adc3 ad3e a635 c43d 6bb7 2d3f b034 2e3f
00000060: 4d0d e7be f723 ff3d 6266 6a3e d4bc f4bd
00000070: 6874 c43f a3af 963d b08f c63f 7101 7abf
00000080: ea60 cebd 839d 1a3f 3873 913f 8814 ddbf
00000090: a1bc 9abf a164 94bf 8d31 cbbe 0528 2cbf
000000a0: 6262 f03d 48ec 28bf 52de debe a851 7e3f
000000b0: c575 fabe 153f 29bf 26f5 d63f a980 41bf
000000c0: f00a d5bd f571 bb3f 3477 cabe 9568 0abf
000000d0: 1496 1a3f 4d11 85bf 1c3a 18be 8c30 7dbf
000000e0: 07cc 16bd edaf a13e 8512 92be e57b 17be
000000f0: 827e 0ebf eb93 04c0 a5db 953e 24c6 e2be
00000100: 451e 013d 650f bcbe cd49 dabe b782 b3be
00000110: a20c 4fbf 10ed e63f ba9c 7f3f b456 62bd
00000120: ab18 b03f 1ba2 97be 16ad c8bf a06e a3bf
00000130: 75ce bb3f 5d30 26bf 4e41 9abf 54f2 4f3e
00000140: 5c72 afbf 8810 90bf fab3 d7bf 69a0 8bbf
00000150: 4e07 4fbf 7590 c5be 53cc 17c0 e0ee c13d
00000160: f407 e8bf 03fa 96bf 185e 973e a4b0 fd3c
00000170: 4d31 67bf 486b 34be 19f3 c5be 20ce 6c3d
00000180: ca2d b53e 27dc 84be f1b2 18bf 2be6 36be
00000190: a5df c43e e875 25bf e9a9 053e cb6b 5bbf
000001a0: 59ff 073d 5f54 ba3f 8dcb bbbe a830 283f
000001b0: 23df 283e 77f8 96be 7276 8bbf e788 9a3f
000001c0: 1b32 4cbf 1971 02bf 2748 a2be ccd2 02be
000001d0: 24f3 383f ee93 edbd 6d0a 8dbf 44e8 033f
000001e0: 2fb0 fe3f 2bff 8ebe 4a0f 9e3f 81d1 24be
000001f0: a83d ecbc 1b22 c3be 23fa 2c40 f49a e9bf
00000200: aa37 ac3f f48c 8dbd 41c0 86be e2e1 373f
00000210: 6a5a 2c3e 41a7 07bf 351d f9be 03b3 bb3d
00000220: 6310 013e 562d 9b3f 2bb3 3440 02ca c3be
00000230: ed3a 1dbf 68c4 8abe 62ad 483c 9a38 c3bf
00000240: dcd6 6dbf 1e7e 733e 7a6b 7ebe 6bdf 47bf
00000250: e1a4 433e 4bbc 1fbf 22d5 52bd 541a d53f
00000260: 79e1 b63d 6a5d 263f bfa7 bfbe d715 8b3f
00000270: 4300 133f a138 883f 382b 4c3d ebbb 9fbf
00000280: fa89 c43e f835 3b3f df2b a8bf 2f56 803e
00000290: 066e 67be 6800 9b3f 65fd 4e3f 826a 8bbf
000002a0: a424 6abf c22e 99bf 9691 95bf 982f 2cbf
000002b0: d55e 6dbf 5f5b 9ebd bbbe 1fc0 3278 bcbf
000002c0: 3f9b 0dbf da51 a0bf 3759 993f 9cb3 803f
000002d0: d7e6 263f 6fae 53bf 3bfc 873e 44ea 1cbf
000002e0: 70ed 7f3f a780 76bf 049a 893e 99fa 2a3f
000002f0: bc06 9abd 1e8c 75bd f4f8 79bf 6409 893e
00000300: 3466 3cbd 9cb3 4fbe 1fdd 2c3f 6925 1c3f
00000310: 94e5 1e40 b815 bd3e 5b0c 71bf 547c f13e
00000320: da36 0940 a55e d93f 45bc b53d d180 23bf
00000330: c825 05bf 9581 443f caf9 7f3f a7f7 433f
00000340: 88b4 4d3e de1f d0be 9404 0ac0 9832 bcbe
00000350: eca7 f7bf a567 9dbf ca7f cb3f d62e 7dbf
00000360: 8881 1abf 14f1 ca3e 434c b83f afac 8c3f
00000370: 9d0e 8bbe c43b aebd b746 053d 90f8 cf3e
00000380: 2307 9dbf a5d8 2a3d cfd0 81bf 11a3 f53d
00000390: c0dd 11bf 9919 823f e892 75bf c38e b6be
000003a0: 87ff aa3f f45d 403e 0f28 9fbf 94c2 d3bd
000003b0: 7025 4fbf 0ca5 aebf e4d2 c4bf 3800 013f
000003c0: b215 6a3f 753b c2bf 8a80 13bf 0676 c7bd
000003d0: d8c4 6ebf f03c 0ebf 8823 4fbf 1527 6c3f
000003e0: 6021 2ebe ac14 823d d462 03bf fce4 9e3e
000003f0: 7103 e03e e264 d53f b531 47bf 855d 16bf

embed_layers.embed_4.weight f4 [30, 8]
-0.35649616 -0.40694022 0.672765 1.1073703 -1.2680042 0.37428498 0.21364833 -0.26286426
-0.8079353 -0.527158 -0.19121037 0.097900234 1.9014642 -0.10356747 0.0834796 -0.120296724
1.2684597 -0.45765036 -1.9109915 -1.0550936 0.5749055 0.02315184 1.0889206 -0.23628059
0.5611394 -0.076788396 0.7237122 -0.7039426 -0.34597826 0.7618965 -0.2517074 1.3570976
0.59505534 -0.05397242 0.6258172 -1.1068872 0.98446524 2.273253 0.56083775 -0.20257747
2.27219 1.686394 -0.16949761 -0.49583432 -1.1687346 -0.6477783 0.023022946 0.66852456
0.796291 -0.15107813 -0.02173377 0.36162394 -0.504649 -1.038435 0.70242256 1.2276914
-0.08224427 -1.106638 -0.19956885 0.882188 -0.09591916 1.7820243 -0.7792161 -0.44607374
0.036354538 0.81383425 -0.2516365 -1.7447999 -0.25865656 0.24393176 -0.5788145 1.14178
0.47453627 0.91243124 -0.6901371 0.5246445 -0.2916699 1.1703416 2.0779054 0.18343045
0.21463409 -0.7522827 0.12006714 0.84379935 1.7693787 -0.68915457 -0.5534565 -0.056905895
0.23718777 -2.4269264 0.5362165 -1.9287692 -2.409471 0.23807198 1.1756945 2.9094791
-0.91763633 0.36567983 -0.82386386 -0.45715582 -0.66691774 0.10830015 1.6302828 0.56397414
-0.053795524 -0.68052524 -1.0708574 1.7944721 2.028903 3.0493062 0.8723869 0.3851358
0.21868436 0.56249905 0.77851784 0.35226625 0.6075811 0.36810994 0.93950194 -1.3920742
1.7305156 -0.9789329 -2.0464542 -0.8232542 -1.1093045 -0.27697816 -0.0021451025 1.9004854
0.9460545 0.14101098 1.2680355 0.1765535 1.0477561 0.1711896 1.5805897 -0.73494685
0.929732 2.0270915 -0.09740835 -0.28709885 -1.6064363 -0.3864255 -0.15032484 -0.011014988
1.8357043 0.6548448 -1.3163573 -0.72834295 -2.6690812 -2.7370892 -0.018080067 -1.7571346
0.43374366 0.15440014 -1.1941469 -0.9232686 -0.01585081 -1.9792753 -0.48763084 -0.8195914
0.979056 -1.0086554 1.5458099 -0.38152236 -0.3288041 0.47693968 -1.4003246 0.99419194
-1.4005188 -2.20662 -1.3097601 0.9905064 -0.5674018 0.6204225 -0.46736303 0.4220821
-0.6054521 0.9792302 -0.7593477 -0.6956505 -0.6975405 -1.2026689 -0.610976 0.44368014
1.4133532 0.8552217 1.201299 0.969488 -2.9508936 1.4652394 0.65867805 -0.08014454
2.1407752 0.5765655 -1.3197137 0.9449119 0.25808367 -0.10582324 0.75459075 -0.75193584
-1.809592 0.8214645 -0.0625363 -0.2435872 0.4812356 -0.9003227 -0.1267312 0.7024629
0.54317445 0.96349186 -0.9785336 -0.155632 -0.48343483 0.014405966 -0.7419947 1.2840457
0.89619595 2.4638896 0.9851416 0.22001521 0.9179499 -0.43934172 0.49692154 -1.0143017
-0.41003406 0.3925238 0.98791856 0.37511522 -0.9542951 0.12645042 -0.048171993 0.32757926
0.6761421 0.5678297 -0.7122933 1.0025275 -1.1859277 -0.30109167 -0.38467002 -1.3136973
00000000: aa86 b6be 785a d0be 543a 2c3f 4fbe 8d3f
00000010: f64d a2bf 48a2 bf3e a1c6 5a3e 2596 86be
00000020: d9d4 4ebf d4f3 06bf a7cc 43be eb7f c83d
00000030: 2e63 f33f 2f1b d4bd 5af7 aa3d 215e f6bd
00000040: e35c a23f 2651 eabe 5f9b f4bf 4f0d 87bf
00000050: 022d 133f eda8 bd3c c061 8b3f 8af3 71be
00000060: d5a6 0f3f 3c43 9dbd 3445 393f 9535 34bf
00000070: 1024 b1be a60b 433f cbdf 80be 60b5 ad3f
00000080: 8c55 183f 2f12 5dbd 8e35 203f 7bae 8dbf
00000090: ea05 7c3f fa7c 1140 1093 0f3f 7870 4fbe
000000a0: 906b 1140 c2db d73f c890 2dbe ffdd fdbe
000000b0: 1899 95bf ccd4 25bf 9e9a bc3c 6d24 2b3f
000000c0: bad9 4b3f 3ab4 1abe 050b b2bc c626 b93e
000000d0: ad30 01bf 70eb 84bf f7d1 333f fe24 9d3f
000000e0: af6f a8bd 50a6 8dbf c75b 4cbe 13d7 613f
000000f0: 4471 c4bd 5f19 e43f b57a 47bf c763 e4be
00000100: 7fe8 143d 7157 503f 80d6 80be 9a55 dfbf
00000110: a26e 84be 3fc9 793e 302d 14bf d925 923f
00000120: 6bf6 f23e 1895 693f d3ac 30bf 1a4f 063f
00000130: c255 95be c1cd 953f 67fc 0440 31d5 3b3e
00000140: 0ac9 5b3e 9995 40bf c3e5 f53d 3c03 583f
00000150: 007b e23f 6f6c 30bf 53af 0dbf 2816 69bd
00000160: 5ae1 723e c352 1bc0 7c45 093f e9e1 f6bf
00000170: c634 1ac0 24c9 733e 287d 963f e834 3a40
00000180: 37ea 6abf 633a bb3e bee8 52bf 5410 eabe
00000190: 1fbb 2abf 78cc dd3d 1bad d03f 9c60 103f
000001a0: b258 5cbd e736 2ebf db11 89bf 43b1 e53f
000001b0: 8cd9 0140 d527 4340 bf54 5f3f 8530 c53e
000001c0: cbee 5f3e f0ff 0f3f f24c 473f 3e5c b43e
000001d0: 6f8a 1b3f e878 bc3e 3383 703f 7d2f b2bf
000001e0: 8981 dd3f 599b 7abf 1bf9 02c0 cac0 52bf
000001f0: b1fd 8dbf 15d0 8dbe d994 0cbb 1b43 f33f
00000200: a130 723f 2f65 103e fd4e a23f 71ca 343e
00000210: df1c 863f 544c 2f3e c350 ca3f 7a25 3cbf
00000220: eb02 6e3f debb 0140 077e c7bd 9ffe 92be
00000230: b49f cdbf 90d9 c5be c1ee 19be 3578 34bc
00000240: 5cf8 ea3f e9a3 273f 657e a8bf af74 3abf
00000250: 3ad2 2ac0 782c 2fc0 a61c 94bc c9e9 e0bf
00000260: a613 de3e 121b 1e3e ced9 98bf 555b 6cbf
00000270: 8fd9 81bc e558 fdbf c0aa f9be bed0 51bf
00000280: 6aa3 7a3f 9f1b 81bf 19dd c53f e656 c3be
00000290: 0359 a8be 7031 f43e d63d b3bf 5d83 7e3f
000002a0: 3344 b3bf 4339 0dc0 38a6 a7bf d491 7d3f
000002b0: 3f41 11bf 02d4 1e3f 354a efbe 251b d83e
000002c0: e9fe 1abf d5ae 7a3f 9c64 42bf 2716 32bf
000002d0: 0492 32bf 0ef1 99bf ec68 1cbf 0b2a e33e
000002e0: c2e8 b43f cfef 5a3f 2ac4 993f 5e30 783f
000002f0: 71db 3cc0 f78c bb3f 209f 283f d222 a4bd
00000300: 7602 0940 cc99 133f 61ec a8bf bfe5 713f
00000310: 8b23 843e dbb9 d8bd dc2c 413f de7e 40bf
00000320: b6a0 e7bf 7f4b 523f 0813 80bd ec6e 79be
00000330: 8364 f63e 8c7b 66bf d3c5 01be 9cd4 333f
00000340: 7b0d 0b3f 67a7 763f 2e81 7abf ff5d 1fbe
00000350: c584 f7be 0007 6c3c 5df3 3dbf 9c5b a43f
00000360: 196d 653f 5eb0 1d40 3d32 7c3f ab4b 613e
00000370: c4fe 6a3f 66f1 e0be 806c fe3e a3d4 81bf
00000380: fcef d1be e1f8 c83e 3be8 7c3f 1a0f c03e
00000390: af4c 74bf 387c 013e ff4f 45bd 78b8 a73e
000003a0: a617 2d3f 4a5d 113f db58 36bf d252 803f
000003b0: 7bcc 97bf b028 9abe 78f3 c4be 3c27 a8bf

embed_layers.embed_5.weight f4 [7, 8]
2.2001889 1.8428111 1.4162384 0.1967336 -0.89775234 -1.4228972 1.611209 -0.4754623
-0.5013335 -1.0116558 -1.8348439 -0.06431534 0.39517066 0.8373217 -0.75600123 -0.42566475
0.81434745 -0.06482978 -0.9002005 0.679493 0.07925519 -0.40127185 -0.14021286 1.9129246
0.35867468 0.5876552 0.4823258 0.018585168 -0.19781843 -0.11698459 -1.0248197 0.5607988
-0.7649017 0.7526159 0.9455009 0.74740696 0.60489976 0.83794314 0.14350256 -0.15595788
-0.21663488 -0.42416188 -0.6865069 -1.2353305 -0.11099466 0.4411979 1.2092793 1.0501925
-1.9216816 -0.20293434 2.2967522 0.380021 -0.17340021 -0.1814625 0.39819375 -0.35230324
00000000: e5cf 0c40 3ce1 eb3f 4d47 b53f 8874 493e
00000010: 19d3 65bf 7f21 b6bf 193c ce3f cb6f f3be
00000020: 6457 00bf f07d 81bf 2adc eabf c3b7 83bd
00000030: cf53 ca3e b75a 563f 4c89 41bf bbf0 d9be
00000040: 1379 503f 7ac5 84bd 8a73 66bf 41f3 2d3f
00000050: 8c50 a23d 8173 cdbe f693 0fbe b7da f43f
00000060: 35a4 b73e 9270 163f 68f3 f63e ec3f 983c
00000070: ea90 4abe 9e95 efbd 4b2d 83bf 8390 0f3f
00000080: 99d0 43bf 70ab 403f 590c 723f 1056 3f3f
00000090: b6da 1a3f 7183 563f 56f2 123e 6cb3 1fbe
000000a0: 89d5 5dbe bf2b d9be ebbe 2fbf 4f1f 9ebf
000000b0: 2b51 e3bd b1e4 e13e aac9 9a3f b56c 863f
000000c0: aaf9 f5bf 05ce 4fbe fdfd 1240 1d92 c23e
000000d0: d38f 31be 4ed1 39be 0de0 cb3e 1761 b4be

embed_layers.embed_6.weight f4 [1164, 8]
0.44969803 -0.78087777 0.62833816 0.4023316 1.1059165 1.615976 -0.5733282 -1.3385733
0.88685244 0.9635531 0.58089453 1.5296124 -0.675448 0.19564474 -0.5412472 -1.1267146
-0.39885148 1.9749459 -1.0811702 -0.030694759 0.414495 -0.28740805 -1.3286667 -0.85966575
-0.66615915 1.6075243 1.6749177 -0.14956944 -0.07875426 -0.15803757 0.26831892 -0.44330838
-0.2867748 0.99651146 -2.3347006 0.38995144 -1.4037852 0.3249014 -0.5339806 -0.048806693
0.16758813 1.8189329 0.22546473 -0.15517035 0.38771802 -0.861023 -0.7468546 -0.67866075
-0.13208807 -1.2055533 -0.04109196 0.7652898 -2.5879853 -0.38499725 0.6347588 -0.026588444
1.145479 -0.088623434 -1.5927192 -0.9050412 -0.4686317 -2.3165753 -1.4743441 1.2052352
0.8906691 -0.45227584 0.294832 -0.6965038 0.4708324 0.15690511 -1.6066369 1.5855253
-1.8595589 0.072067685 0.127877 -0.088156424 0.32997203 -0.6767939 1.3807732 -0.6914504
0.29294756 -0.82464606 0.23327635 -0.5620647 0.11608434 -1.0847273 -1.3658351 -1.0775
-0.69249076 1.8152851 0.3631906 -1.822751 -0.53799695 -0.7853386 -0.0068005836 -0.82768226
-0.4223347 -0.1951654 0.5340776 -0.27464098 0.5325806 -1.6471153 -0.19604498 0.9189901
-1.082252 -0.8538148 -0.8097535 1.8460919 -0.14292611 0.5263457 -0.019179465 -1.3130909
0.9188634 -1.010037 -0.20463796 -0.15073918 1.41341 0.14943042 -1.4904919 -0.33731902
1.0394392 0.6558599 0.38057056 0.06279633 -0.15993074 0.30810976 0.10368635 1.207068
0.8030127 0.28072235 -0.21900323 -1.61032 1.4362832 0.49327016 -0.4506744 -0.5499735
-1.3211242 -0.41190806 -1.9444792 -2.468863 -0.5357224 0.6054133 -0.6034739 -0.17539418
-0.58229643 -1.2176205 0.56963134 0.43682054 0.13029037 -1.020189 0.11607326 0.57969755
2.0873787 -1.3673579 0.11411438 0.48787326 -0.9454412 0.8844519 2.8401477 1.6867253
-0.51605827 0.18039034 0.71192765 0.6359005 -0.22933409 0.046813127 0.75373703 -0.64928526
1.7692846 -1.4695796 0.25820294 1.2800156 -0.0015136978 -1.1087385 1.3432748 0.4425583
0.3252568 -0.10447853 1.7965251 -0.17490777 -0.14687343 -1.6264482 -1.437634 2.1646888
-0.76871896 -1.2597241 0.363157 -0.6133801 1.2023603 0.5688449 -0.72420293 0.30147147
1.3223431 0.6113205 1.5635444 0.4698645 -1.6739533 0.28014416 1.2016563 -0.765066
1.4804075 1.1535355 1.3834342 -0.10646682 0.16886644 -0.08271701 2.1439567 0.4003794
-0.65196157 1.2400165 -0.40749812 -1.1184301 0.40872586 -0.49388814 -0.33409765 0.81181955
-0.94687724 1.4449393 2.096965 -0.22080038 0.38392895 0.23489213 -0.34772328 -2.0142365
0.61858803 -0.9764349 0.3045783 0.12386634 -0.22834493 -0.57462513 -0.17319252 -1.0444481
0.118795305 -0.27882838 -0.51498914 -0.04964457 0.1398128 -0.36255822 -1.2739882 -0.11092452
-2.0116804 -0.7210015 -0.124652326 0.8391224 -0.79820025 2.7972286 -0.700476 1.1819682
0.12584326 0.31997767 -0.3830851 -1.8789724 -0.010029141 0.7609561 0.12807943 -0.4536461
00000000: d23e e63e 9be7 47bf c5da 203f 68fe cd3e
00000010: ac8e 8d3f 4dd8 ce3f a3c5 12bf 5f56 abbf
00000020: c308 633f 6aab 763f 81b5 143f 57ca c33f
00000030: 29ea 2cbf 1857 483e 2d8f 0abf 2f38 90bf
00000040: 4336 ccbe 07cb fc3f c963 8abf 9373 fbbc
00000050: b038 d43e 2627 93be c011 aabf 0e13 5cbf
00000060: 6889 2abf 5bc3 cd3f b463 d63f bb28 19be
00000070: ea49 a1bd 9ad4 21be 1961 893e 51f9 e2be
00000080: 26d4 92be 601b 7f3f bc6b 15c0 b7a7 c73e
00000090: 3caf b3bf 7a59 a63e f4b2 08bf 87e9 47bd
000000a0: 399c 2b3e cbd2 e83f 3ae0 663e fae4 1ebe
000000b0: fa82 c63e 016c 5cbf dd31 3fbf b6bc 2dbf
000000c0: 1842 07be 924f 9abf 0b50 28bd 08ea 433f
000000d0: 8da1 25c0 5c1e c5be 8d7f 223f 02d0 d9bc
000000e0: 0e9f 923f 3480 b5bd 39de cbbf c8b0 67bf
000000f0: 7ff0 efbe c542 14c0 4fb7 bcbf 2645 9a3f
00000100: e402 643f b390 e7be 38f4 963e 134e 32bf
00000110: f210 f13e bcab 203e 47a6 cdbf 7ef2 ca3f
00000120: 0706 eebf 3998 933d 30f2 023e 5b8b b4bd
00000130: 18f2 a83e 5d42 2dbf 2dbd b03f e502 31bf
00000140: 39fd 953e 011c 53bf ffdf 6e3e 79e3 0fbf
00000150: a0bd ed3d 58d8 8abf afd3 aebf 85eb 89bf
00000160: 1347 31bf 435b e83f 1ef4 b93e e84f e9bf
00000170: 2bba 09bf f30b 49bf 6ed7 debb fce2 53bf
00000180: 413c d8be 70d9 47be 4fb9 083f be9d 8cbe
00000190: 3457 083f add4 d2bf 04c0 48be ef42 6b3f
000001a0: 3c87 8abf 9b93 5abf 014c 4fbf bd4c ec3f
000001b0: 395b 12be 97be 063f 411e 9dbc 5d13 a8bf
000001c0: a23a 6b3f e448 81bf 9d8c 51be 5f5b 1abe
000001d0: 9eea b43f 4a04 193e 70c8 bebf 14b5 acbe
000001e0: 580c 853f 6fe6 273f 25da c23e 5d9b 803d
000001f0: e2c4 23be 90c0 9d3e 8259 d43d 3481 9a3f
00000200: 3e92 4d3f d7ba 8f3e 6242 60be f71e cebf
00000210: 21d8 b73f e88d fc3e ccbe e6be 10cb 0cbf
00000220: 991a a9bf 9de5 d2be b2e4 f8bf da01 1ec0
00000230: 1a25 09bf 5efc 1a3f 447d 1abf 889a 33be
00000240: 6111 15bf fdda 9bbf 5cd3 113f f1a6 df3e
00000250: d76a 053e 8e95 82bf d1b7 ed3d 0f67 143f
00000260: 9d97 0540 9505 afbf cdb4 e93d 86ca f93e
00000270: 6f08 72bf 716b 623f fbc4 3540 9de6 d73f
00000280: 651c 04bf 3fb8 383e e440 363f 60ca 223f
00000290: 8ed6 6abe 1fbf 3f3d e9f4 403f 8f37 26bf
000002a0: eb77 e23f 2f1b bcbf 2d33 843e 8dd7 a33f
000002b0: 4567 c6ba 25eb 8dbf 6ef0 ab3f 0097 e23e
000002c0: 0f88 a63e d7f8 d5bd 89f4 e53f 061b 33be
000002d0: fd65 16be 742f d0bf 6404 b8bf 438a 0a40
000002e0: c4ca 44bf a43e a1bf b7ef b93e 7a06 1dbf
000002f0: f1e6 993f d29f 113f 5d65 39bf 785a 9a3e
00000300: 8a42 a93f 807f 1c3f 3922 c83f 1492 f03e
00000310: 1a44 d6bf 0e6f 8f3e e0cf 993f 5edb 43bf
00000320: fe7d bd3f 0da7 933f 5f14 b13f 470b dabd
00000330: 53eb 2c3e 8967 a9bd 9636 0940 87fe cc3e
00000340: f4e6 26bf dcb8 9e3f 98a3 d0be b828 8fbf
00000350: 8444 d13e e8de fcbe d90e abbe 68d3 4f3f
00000360: 8c66 72bf c5f3 b83f ad34 0640 7f19 62be
00000370: 5692 c43e 9087 703e c908 b2be 40e9 00c0
00000380: c95b 1e3f a3f7 79bf b0f1 9b3e a3ad fd3d
00000390: 41d3 69be a21a 13bf 6159 31be 7ab0 85bf
000003a0: f44a f33d 98c2 8ebe 54d6 03bf 1b58 4bbd
000003b0: 162b 0f3e 3ba1 b9be 0c12 a3bf 652c e3bd
000003c0: 5fbf 00c0 8e93 38bf b849 ffbd bad0 563f
000003d0: da56 4cbf cb05 3340 6552 33bf bc4a 973f
000003e0: 0edd 003e 1dd4 a33e bb23 c4be 2b82 f0bf
000003f0: 4451 24bc 05ce 423f 4127 033e 4d44 e8be

embed_layers.embed_7.weight f4 [39, 8]
0.9369066 -1.3131434 0.19295254 -1.1383303 0.7767181 -0.2364535 0.4535925 -0.8432247
-1.3870077 1.1531521 -1.5053222 -0.3602527 -0.46974066 1.7595916 0.8796898 0.2113529
-1.4548572 0.18180265 -3.1689324 -0.30345535 -0.7121965 1.9029689 -0.20792246 -1.3369277
1.111029 1.9768643 0.2300643 0.2507227 -0.66168374 -0.06542057 0.42268842 0.5260671
-0.14739524 -0.29516983 2.1520107 -0.57433 0.17652674 -0.6648908 -1.604907 0.11086452
-0.66190535 -1.3797796 -0.44691426 1.0321989 0.95435524 -0.883697 -0.42443234 0.17085785
0.9573123 1.8630939 -0.79092795 -0.23736778 -0.63685536 -0.6507791 -1.2406491 -0.63029724
0.27349907 0.5145518 1.463934 0.49601263 -1.4630355 0.5364675 -0.9439825 0.41065365
-2.464575 0.34804094 -0.37974507 -0.4517974 -1.1152446 -0.34057665 0.82790023 -1.644554
-0.24870825 1.6796206 -0.18632115 0.6917296 -1.0854903 -0.45321584 0.7353257 -0.20244706
2.3345184 -1.3180408 0.009127794 0.08785766 -0.6340706 0.96725005 1.2488819 1.180372
-0.61882967 2.3636122 0.28638408 0.44356653 -0.75188416 2.5522969 -1.6807941 -0.056876447
0.1937918 -1.128764 -1.8302149 -0.6622208 0.4927126 -1.2703156 0.1584452 0.0481006
-0.6020036 -0.029898595 1.1267898 0.22761993 -1.2619959 -0.066533245 -0.11825179 -1.8418728
0.21907464 0.06018306 1.2326577 -0.4457822 -0.55894023 -1.5309026 0.27247697 -0.2641297
0.79653805 0.7082561 -0.47347912 -1.0456461 0.2729674 0.5623218 -0.5534666 0.6101765
-1.7977864 0.71652454 -0.29467142 -0.6994118 0.6642326 1.4594303 -1.2800134 1.0756689
-0.09293439 0.058654618 0.19571947 -1.1052899 -0.7200758 -0.28519985 0.11107007 0.9340979
1.1384101 -0.45808342 1.1118202 0.08383162 -1.6046702 -0.23811571 0.47858772 0.46953952
-0.29336193 1.1111548 0.03450326 -0.4269324 -0.08543631 0.29673186 -0.30556074 -0.9070283
-0.29834932 -0.007458667 1.0870452 -0.092058524 -0.5439677 0.044732258 0.33488622 0.39606827
-1.2394782 -1.8219867 0.40595138 -0.5783959 -1.014044 2.251466 -1.4772177 0.80998474
-1.3534852 0.61396474 -1.0136341 -0.16014166 1.2949657 -0.10574645 1.7713797 -0.036851007
0.8521792 1.9291977 0.2656957 1.7796875 -1.6285417 -0.5513627 -0.48315364 -0.3577291
-0.798129 -0.40077665 -2.5246184 -0.26053813 -1.0494361 -0.6411011 -0.15473919 0.008691607
-0.24471273 -0.6467772 -1.4423206 -0.13203424 -0.75091285 -0.6405057 -0.5409822 -0.38301563
2.168105 -0.5642774 0.07408002 -0.69330525 -0.6739742 -1.3810128 0.6778764 0.33172426
1.0500463 0.5977808 0.072535366 -0.19069149 1.594484 -0.6232486 0.46757534 -1.3749355
0.332962 -0.04473426 -0.7322035 -2.43096 -0.80508405 0.94074154 -1.0496241 0.1120771
-1.6570246 0.6062291 -1.1087751 -0.30712238 -0.44122502 1.0119215 -0.7637024 -0.12780654
0.3979594 -1.8497951 -1.2526168 -0.25039184 -0.24749255 0.9676547 0.29884207 2.3396997
0.808344 0.26898953 -0.4274583 -1.2462392 -1.4006277 -0.5492574 0.6161939 -1.1207637
00000000: 1cd9 6f3f 1515 a8bf 5a95 453e cfb4 91bf
00000010: ffd6 463f de20 72be 473d e83e 93dd 57bf
00000020: 7889 b1bf 7d9a 933f 66ae c0bf 0b73 b8be
00000030: d981 f0be 4c3a e13f 5a33 613f e56c 583e
00000040: c338 babf 792a 3a3e cacf 4ac0 805e 9bbe
00000050: 8352 36bf 7c94 f33f a0e9 54be 7220 abbf
00000060: 3336 8e3f e409 fd3f fa95 6b3e ba5e 803e
00000070: 1b64 29bf 38fb 85bd 9e6a d83e 55ac 063f
00000080: c7ee 16be 8020 97be 8bba 0940 4a07 13bf
00000090: 6dc3 343e 4936 2abf 986d cdbf f00c e33d
000000a0: a172 29bf 9e9c b0bf f2d1 e4be 181f 843f
000000b0: a050 743f f739 62bf 324f d9be 5cf5 2e3e
000000c0: 6b12 753f dc79 ee3f 417a 4abf 8a10 73be
000000d0: f408 23bf 7699 26bf 97cd 9ebf 295b 21bf
000000e0: 1208 8c3e abb9 033f 3062 bb3f 5ef5 fd3e
000000f0: bf44 bbbf ef55 093f d6a8 71bf 3241 d23e
00000100: 99bb 1dc0 6c32 b23e f26d c2be fd51 e7be
00000110: 56c0 8ebf 1060 aebe 45f1 533f bf80 d2bf
00000120: 60ad 7ebe cffd d63f f9ca 3ebe 3115 313f
00000130: 59f1 8abf e80b e8be 4e3e 3c3f 484e 4fbe
00000140: c068 1540 90b5 a8bf be8c 153c b8ee b33d
00000150: 7352 22bf b39d 773f 5ddb 9f3f 6e16 973f
00000160: 9f6b 1ebf 6c45 1740 efa0 923e 271b e33e
00000170: 7b7b 40bf d558 2340 4324 d7bf 47f7 68bd
00000180: 5c71 463e 577b 90bf 7b44 eabf 4d87 29bf
00000190: d344 fc3e b499 a2bf 753f 223e 2205 453d
000001a0: e81c 1abf e6ed f4bc a63a 903f 3315 693e
000001b0: 1589 a1bf 9542 88bd ff2d f2bd 7dc2 ebbf
000001c0: 1a55 603e 8382 763d bac7 9d3f 913d e4be
000001d0: b516 0fbf 9ef4 c3bf 1a82 8b3e 023c 87be
000001e0: ebe9 4b3f 4650 353f db6b f2be bbd7 85bf
000001f0: 62c2 8b3e 52f4 0f3f fdaf 0dbf 8734 1c3f
00000200: dd1d e6bf 276e 373f 2cdf 96be a70c 33bf
00000210: 260b 2a3f 9dce ba3f 7bd7 a3bf 85af 893f
00000220: 6354 bebd d33f 703d af6a 483e 247a 8dbf
00000230: e356 38bf b705 92be b478 e33d 0a21 6f3f
00000240: 6cb7 913f e989 eabe 2050 8e3f eaaf ab3d
00000250: d565 cdbf 9bd4 73be 7309 f53e 7c67 f03e
00000260: 8933 96be 523a 8e3f 4a53 0d3d e296 dabe
00000270: 3bf9 aebd 3ded 973e 7572 9cbe 0233 68bf
00000280: 3ec1 98be d567 f4bb 4c24 8b3f 2e89 bcbd
00000290: 7841 0bbf 2c39 373d 3576 ab3e 76c9 ca3e
000002a0: 39a7 9ebf dc36 e9bf dcd8 cf3e c111 14bf
000002b0: 32cc 81bf 0518 1040 7815 bdbf 295b 4f3f
000002c0: 013f adbf cb2c 1d3f c3be 81bf 2dfc 23be
000002d0: 70c1 a53f 9891 d8bd 92bc e23f 15f1 16bd
000002e0: 6b28 5a3f f3ef f63f 4409 883e cdcc e33f
000002f0: 0e74 d0bf 1b26 0dbf ea5f f7be 4528 b7be
00000300: 2f52 4cbf 9932 cdbe 5993 21c0 4165 85be
00000310: ec53 86bf 341f 24bf f373 1ebe 3e67 0e3c
00000320: f995 7abe 3193 25bf f69d b8bf fc33 07be
00000330: d33b 40bf 2ef8 23bf cf7d 0abf a01a c4be
00000340: 3bc2 0a40 7c74 10bf 44b7 973d 747c 31bf
00000350: 9389 2cbf 07c5 b0bf 4f89 2d3f c3d7 a93e
00000360: eb67 863f 2a08 193f 6c8d 943d a144 43be
00000370: 0d18 cc3f 388d 1fbf 0966 ef3e e3fd afbf
00000380: ff79 aa3e 453b 37bd b071 3bbf d994 1bc0
00000390: fd19 4ebf 70d4 703f 155a 86bf ae88 e53d
000003a0: 6219 d4bf d531 1b3f 58ec 8dbf 253f 9dbe
000003b0: 3fe8 e1be a586 813f 0082 43bf b8df 02be
000003c0: 56c1 cb3e 16c6 ecbf bf55 a0bf 5c33 80be
000003d0: b06e 7dbe 38b8 773f d401 993e a4bd 1540
000003e0: a2ef 4e3f ffb8 893e d0db dabe c484 9fbf
000003f0: c547 b3bf 229c 0cbf e2be 1d3f 2f75 8fbf

embed_layers.embed_8.weight f4 [2, 8]
-0.4998273 -1.5630013 -1.7926127 -1.1760607 1.0881679 1.0057962 -1.465181 1.1346129
0.44722438 1.0338624 -2.060055 -0.9891542 0.3167493 -1.427022 -1.6670657 0.69984263
00000000: 5de9 ffbe 6d10 c8bf 5574 e5bf 2889 96bf
00000010: 1649 8b3f eebd 803f 0d8b bbbf ff3a 913f
00000020: 98fa e43e 9a55 843f f1d7 03c0 3639 7dbf
00000030: f72c a23e a8a8 b6bf 6962 d5bf e328 333f

embed_layers.embed_9.weight f4 [908, 8]
0.40794066 1.5223539 -0.64021015 1.0246998 0.63819605 1.5265347 0.3414754 2.1350002
-0.27600154 -0.37707162 -0.6495114 -2.6484084 1.5480442 0.6904783 0.39030522 1.1991669
1.3074213 1.2150892 -0.8158757 -0.057449415 1.7210389 -0.007508876 -0.056232903 0.4633861
0.2587483 0.38355887 -0.85525936 0.7709512 -0.34854308 -1.127071 -0.10388341 -0.5232768
-0.5369601 -0.85013103 -0.22112899 -2.095187 0.33107963 0.32195705 -0.030870626 -1.1520609
0.3994044 -0.24057662 0.24434602 0.034904577 0.40400383 0.102187455 -0.36269546 -2.653996
0.77576673 0.769213 -1.7860765 -0.8455315 -0.13252242 0.0071671745 0.70704544 -0.2212317
0.9014685 -0.681352 -0.26572117 0.724492 2.3295412 -1.1944613 0.96445006 -1.3977009
0.45373616 -1.2865825 -0.8793601 -0.4758109 -0.030934576 0.38533157 1.1996104 -0.91514075
-0.32266515 -0.9201106 -0.77665806 0.023057437 1.3984548 -1.3538283 0.15955804 -1.3647809
1.0056039 0.18480928 0.20397632 -1.5042899 -0.834309 0.3616534 1.130184 -0.77957654
-1.2835939 -0.35980794 1.0081239 0.31004816 0.43764654 -1.1223576 0.02400318 1.6867666
-1.9923104 0.349343 -0.2315448 1.0275058 1.0375868 1.6568812 -1.144483 1.3004961
-1.5321363 -0.72722876 -0.9467049 0.69773275 0.2202928 -0.22450855 0.3003579 -1.9732937
0.6507628 0.23927927 1.4726706 0.44777167 2.0153685 -1.3211464 -0.9448599 0.47795266
-1.4823599 0.98985684 1.1351688 -0.04554734 0.4483749 -0.17557381 1.6741521 -1.7507752
-0.42062256 0.80696905 -0.5245615 0.41044578 -0.6948621 -0.83043337 -0.08081262 -0.23135778
-0.65978086 -0.8348723 -1.1392583 0.41812104 0.01351183 -1.2392511 0.92660505 -0.58094764
-0.052496262 0.098040216 -1.1833233 -0.7229761 1.3240844 -1.2977016 0.5581912 -0.52774
-0.86827445 -0.060503878 -0.4034621 0.9142183 -0.63554794 1.0189729 -0.51721305 0.54795676
-0.8738773 -1.2324516 0.57650137 -0.21014892 0.098351225 0.46282002 -0.9734581 0.6400311
0.36345536 0.28930444 0.70480144 3.065984 0.086101286 -1.2396635 0.23491296 0.5256481
-3.789269 -0.8229552 -2.0990937 0.7101453 1.5794073 -1.6042708 -0.61298245 0.6276579
0.45252478 -1.0513622 -0.12807505 0.9470862 1.3190081 0.26926127 -0.16381107 -0.7736136
-0.0954521 1.2541741 -1.2893206 0.69270605 -0.28070927 -0.6671661 0.5207734 0.43734258
-2.8037941 -0.6517066 1.2130731 -0.24445322 0.06088019 0.001852782 0.7030528 1.559202
-1.4526783 0.062263276 0.5710135 -0.079002514 -0.85323346 -1.2881398 -1.4606242 0.39329684
-0.54936767 0.22396173 0.26195258 -2.6734715 0.9724766 -0.9586587 -1.6697891 -1.4740152
-0.46550995 -0.13212995 0.7450436 -1.21423 -0.31088415 0.8080136 -1.4409723 0.9220629
1.0347933 1.1393975 -0.35891482 -1.6326827 0.10492803 0.41221282 -1.4909931 0.23324603
0.08212886 0.42291877 0.21179879 0.76615554 -0.29526672 -0.7676795 -1.1826092 0.09895627
-0.7514638 1.9815893 0.46300188 -1.1502422 -0.8974064 -0.8678341 0.75397074 1.1276381
00000000: 99dd d03e 7edc c23f d0e4 23bf 5d29 833f
00000010: d160 233f 7d65 c33f ddd5 ae3e d8a3 0840
00000020: 1350 8dbe 880f c1be 6146 26bf 867f 29c0
00000030: 5026 c63f 30c3 303f 16d6 c73e 4d7e 993f
00000040: 9559 a73f 0b88 9b3f 3bdd 50bf 1450 6bbd
00000050: 014b dc3f 040d f6bb 7954 66bd f140 ed3e
00000060: a87a 843e d461 c43e 47f2 5abf 0f5d 453f
00000070: 3d74 b2be dd43 90bf d3c0 d4bd 78f5 05bf
00000080: 3876 09bf 30a2 59bf a36f 62be 8b17 06c0
00000090: 4583 a93e 8ed7 a43e 65e4 fcbc bb76 93bf
000000a0: bc7e cc3e b859 76be d835 7a3e 1af8 0e3d
000000b0: 97d9 ce3e a847 d13d 38b3 b9be 12db 29c0
000000c0: a698 463f 25eb 443f 289e e4bf c174 58bf
000000d0: f5b3 07be 9eda ea3b ee00 353f 908a 62be
000000e0: a4c6 663f 166d 2ebf 9b0c 88be 4f78 393f
000000f0: 3417 1540 1ce4 98bf 33e6 763f dde7 b2bf
00000100: 1b50 e83e bcae a4bf be1d 61bf 7c9d f3be
00000110: 826a fdbc 2e4a c53e d58c 993f aa46 6abf
00000120: 5e34 a5be 5e8c 6bbf 10d3 46bf f3e2 bc3c
00000130: 9100 b33f 3f4a adbf 2f63 233e 24b1 aebf
00000140: a1b7 803f a53e 3d3e 2bdf 503e 928c c0bf
00000150: 4695 55bf a22a b93e dfa9 903f 5492 47bf
00000160: ce4c a4bf bf38 b8be 340a 813f a2be 9e3e
00000170: 3513 e03e 6aa9 8fbf 51a2 c43c f8e7 d73f
00000180: 0704 ffbf 16dd b23e 141a 6dbe 4f85 833f
00000190: a5cf 843f af14 d43f 6b7e 92bf a876 a63f
000001a0: 0b1d c4bf aa2b 3abf 415b 72bf 9d9e 323f
000001b0: 7094 613e 92e5 65be 83c8 993e e394 fcbf
000001c0: 6498 263f a005 753e 7880 bc3f 5442 e53e
000001d0: ccfb 0040 531b a9bf 57e2 71bf 36b6 f43e
000001e0: f8bd bdbf 4267 7d3f 364d 913f d98f 3abd
000001f0: 6591 e53e 9fc9 33be 9e4a d63f 6719 e0bf
00000200: d75b d7be 8695 4e3f aa49 06bf f325 d23e
00000210: 7ce2 31bf 4897 54bf 1681 a5bd 0ee9 6cbe
00000220: 66e7 28bf 31ba 55bf 37d3 91bf f613 d63e
00000230: b960 5d3c c89f 9ebf fd35 6d3f fcb8 14bf
00000240: 5206 57bd 4fc9 c83d 2377 97bf f614 39bf
00000250: 997b a93f 161b a6bf 9ee5 0e3f f819 07bf
00000260: 3c47 5ebf ead2 77bd 9692 cebe 360a 6a3f
00000270: 45b3 22bf b46d 823f 1368 04bf e546 0c3f
00000280: 6cb6 5fbf f9c0 9dbf 9895 133f 4731 57be
00000290: 5e6c c93d bff6 ec3e 8d34 79bf 14d9 233f
000002a0: d216 ba3e b61f 943e de6d 343f 1539 4440
000002b0: df55 b03d 4bad 9ebf 068d 703e e090 063f
000002c0: 6283 72c0 31ad 52bf 8d57 06c0 15cc 353f
000002d0: 052a ca3f bf58 cdbf 6bec 1cbf 30ae 203f
000002e0: 54b1 e73e 0993 86bf 1b26 03be 3e74 723f
000002f0: 42d5 a83f 9ddc 893e 17be 27be 8a0b 46bf
00000300: 647c c3bd c788 a03f 7508 a5bf 2f55 313f
00000310: 20b9 8fbe 66cb 2abf 6851 053f 5eeb df3e
00000320: 5d71 33c0 3ed6 26bf fb45 9b3f f251 7abe
00000330: 825d 793d 0cd9 f23a 45fb 333f ee93 c73f
00000340: 5df1 b9bf c707 7f3d f12d 123f 12cc a1bd
00000350: 826d 5abf c4e1 a4bf bcf5 babf 345e c93e
00000360: 5ca3 0cbf 3956 653e a61e 863e 281a 2bc0
00000370: 3af4 783f a86a 75bf a6bb d5bf 88ac bcbf
00000380: 5257 eebe 134d 07be 2dbb 3e3f e36b 9bbf
00000390: 352c 9fbe fbd9 4e3f c871 b8bf 500c 6c3f
000003a0: 1b74 843f c7d7 913f afc3 b7be bffb d0bf
000003b0: 82e4 d63d 8f0d d33e ddd8 bebf 0cd8 6e3e
000003c0: 2d33 a83d cf88 d83e c8e1 583e c522 443f
000003d0: 332d 97be a586 44bf bd5f 97bf 96a9 ca3d
000003e0: ee5f 40bf b8a4 fd3f 950e ed3e 233b 93bf
000003f0: 6dbc 65bf 602a 5ebf 3a04 413f 7256 903f
